final_weight/RUIE_300.pth (torch, 910037 bytes, 20 tensors)

image_net.conv1.1.weight f4 [64, 3, 3, 3]
00000000: b572 163e 8a27 e03d 6a3c 9e3d 7066 af3d
00000010: 6f7b 04bf 941b 553e 5b47 6dbc 96b2 91be
00000020: 24af 3e3d 5acb a23d 3fc7 4bbd db1d cebc
00000030: 7845 21be 7f30 cfbd 1622 1fbe b830 713d
00000040: f91e 183c d1ef 113e 1f41 e7bd 078d 153d
00000050: 5afe 733c d00f a7bd bb66 2dbd 50a0 413c
00000060: fd30 04be 80d3 c23d ba64 15be 7851 2fbe
00000070: 421c b9bd e74c d4be abfd 59bd c413 9c3d
00000080: bb69 d4bd c721 3fbe f5d4 e7bb b2d7 8dbe
00000090: 1d8c efbd b8b9 a93d 079b 9c3d f7a2 58bc
000000a0: daf9 843d 65de c5bc e9f3 4dbd 0dee 413e
000000b0: 6d4b 47bc be76 19be cad9 99bd cbb2 423c
000000c0: 73cf 373d b5b6 133e 38d0 c8bb 324f 07be
000000d0: 56e2 a6bd 5068 14be 7e17 853d cbd3 8dbe
000000e0: 89ae 88bd ff40 143e 1d36 f9bd fced 17be
000000f0: 0ad0 ba3d 7338 733e 4dda f6bc a7b5 b0bd
00000100: 3ce4 6dbd 7102 5c3d 0f04 a6bd f03d 30bd
00000110: dfa8 16be 9b54 e53d 4280 563e fd15 2c3e
00000120: a366 e3bd 728b 12be 60ff 1d3e 62b0 dabd
00000130: 539d c2bc f941 21be c13f 7bbd 4a52 de3d
00000140: e2f6 dc3d 5bfc ca3d 595e 063e 62d9 8c3d
00000150: f045 8dbc 3b49 afbd 0d11 843c dd43 323e
00000160: b8c0 193e 6d74 b33d 21c0 f1bd 7ed2 813e
00000170: 7763 ce3c 22ee a73e 7aba 6f3d e227 3e3e
00000180: 9100 bf3c df74 8f3d 024d 8a3c d611 1fbe
00000190: f82e 9f3d 8e2c 8ebe 22d6 81bc 720e 47be
000001a0: 17c5 aabd d41f 52be cc08 febd 4f66 a539
000001b0: fc58 cf3d 4a27 9bbc 20ae d93d ae78 0fbe
000001c0: 91b9 e03d 3d59 7cbd 5fbf fcbc 58ba 68bd
000001d0: 1380 02be efff debd 9120 903d c71a 4ebd
000001e0: 12a6 91bd a3e9 e63e 61e9 713e 27d0 c0bd
000001f0: e569 7d3e 70cd 1ebe fa64 babb 848a b13c
00000200: 4d8b a1bd 4bef 983d b830 1f3d 1752 213c
00000210: f2e1 8dbd 34c2 58be d857 d3bd 2253 f7bd
00000220: d9db a53d 77e7 f33c 6b15 ee3d 1c75 d1bd
00000230: 7618 b53d ec1d b53a 88e6 25bd ae78 f23d
00000240: 1199 0f3d 601b cfbd e3a7 8cbd a65d 5cbc
00000250: 81bb d1be 28bc 57be 3a19 8abd 012a 13be
00000260: 1c6a e3bc 5fec 133e ab91 f83d 4e18 5c3e
00000270: ce5e 3bbd 6738 cfbc a8e7 afbd 33d7 383e
00000280: fb79 4c3d e034 693e 1f4d 81bd 9f6f 4b3e
00000290: c29b 203e 259e 5e3e e90c ac3d 1e16 513e
000002a0: 2569 153e 004a 2f3e 711f cebc 7ae6 29be
000002b0: eb3b 71bd 47bc 32bc 663e 61be 6a59 78be
000002c0: 8ca4 8ebe 7cbb 02be 9c22 ba3d 9596 40bd
000002d0: 0f5e 953d 5269 063d f16a 003e 5d6c 13be
000002e0: cfa7 38be ebb3 afbd 8a36 91bd 895a de3d
000002f0: d0be ef3d 8c3c 803e b9d3 1dbf e2e4 843e
00000300: c224 513d fbce 3fbf 6e42 e3bd e548 d73d
00000310: f6a4 1b3e 271c 263e cebc 303e f67d d43d
00000320: b3e4 1cbd f18c 4b3d 65a9 123e ab5c 3dbc
00000330: 9b53 19be 669d 043d 5f7f 233b 1735 8abd
00000340: 2559 c5bd 9ea8 733c 146d d2bd 41c6 8ebd
00000350: 0129 a63c 1f04 38be e445 1abb 451e 01be
00000360: 863a ae3d 9362 473d 6667 e73d 6730 833d
00000370: e26f 95be 1d98 e3bc 236e 05bd eba1 76bd
00000380: 8f92 873d ddb5 39be 48de 29bc 1280 83bd
00000390: a296 3f3d 8872 9cbe 182d 093e 6a62 aebc
000003a0: cbbe 0c3b 05dd ab3d eb50 d03d 67e2 72bd
000003b0: 2198 a63d 58dc d73c 20ba 1ebf 9ec7 4f3e
000003c0: 7c28 a73d 81f9 543c e030 0dbd 7e12 ec3d
000003d0: e556 843e dace 963e a379 90be 4fb8 16be
000003e0: 0374 393e 1380 3abd 5217 c5bc b517 5abe
000003f0: 1252 683e f385 39be 53c9 cbbd da72 efbc
0.14692195 0.109450415 0.07726367 0.0856446 -0.51750845 0.20811301 -0.0144823445 -0.28456563
0.046553746 0.079489425 -0.049750563 -0.02516072 -0.15749156 -0.10116672 -0.15540347 0.058884352
0.009284728 0.14251639 -0.11291718 0.036511447 0.014892185 -0.08157313 -0.0423343 0.011818007
-0.12909313 0.09512997 -0.14589205 -0.17120922 -0.09038593 -0.41464922 -0.053220432 0.076209575
-0.10371729 -0.18665229 -0.007074947 -0.27703625 -0.11696646 0.08287376 0.076467566 -0.013222448
0.06492968 -0.024153898 -0.05028144 0.18938465 -0.012163979 -0.14986703 -0.07512243 0.011883448
0.044875573 0.14425166 -0.0061283372 -0.13213804 -0.08148639 -0.14492917 0.064986214 -0.27700648
-0.06673915 0.14477919 -0.121685244 -0.14836878 0.091217116 0.23752002 -0.03013339 -0.086283974
-0.05807899 0.053713266 -0.08106243 -0.04302782 -0.14712857 0.11197778 0.20947364 0.16805263
-0.11103561 -0.14311007 0.15429449 -0.106781736 -0.023756659 -0.15747823 -0.061340097 0.10855539
0.10789277 0.09911414 0.13121928 0.068774 -0.017245263 -0.085588895 0.016121412 0.174087
0.15014923 0.08762441 -0.11804224 0.25355905 0.025193913 0.32798868 0.058527447 0.18569902
0.0233157 0.07004713 0.016882423 -0.15534148 0.077726305 -0.27768368 -0.015849177 -0.19439104
-0.08338373 -0.20519954 -0.124040216 0.00031547478 0.10124394 -0.018939633 0.10628915 -0.1401088
0.10972894 -0.06160854 -0.030852972 -0.056818336 -0.12744169 -0.10888659 0.070374615 -0.050318506
-0.071117535 0.45100126 0.23624183 -0.09414702 0.24747427 -0.15508056 -0.005688307 0.021672495
-0.07887898 0.074675165 0.03886482 0.009846232 -0.06927861 -0.21167833 -0.10319489 -0.12076403
0.08098573 0.029773457 0.11625179 -0.10227415 0.08842556 0.0013818122 -0.040503055 0.11839424
0.035058085 -0.10112643 -0.06867959 -0.013450062 -0.40963367 -0.2106787 -0.06743093 -0.14371492
-0.027760558 0.14445637 0.12137159 0.21493647 -0.04574471 -0.02529545 -0.08589107 0.18050842
0.049921017 0.22774076 -0.06313538 0.19866799 0.15684417 0.21740015 0.084009 0.20418593
0.1459089 0.17118073 -0.025161477 -0.16591826 -0.058895033 -0.010909147 -0.2199646 -0.24252859
-0.27859914 -0.12766832 0.090886325 -0.047018606 0.07293331 0.032815285 0.12540795 -0.14396806
-0.18032764 -0.085792385 -0.070904806 0.10857112 0.117063165 0.25046194 -0.6165119 0.25955874
0.051060446 -0.749252 -0.11096655 0.105119504 0.15199646 0.16221677 0.17259523 0.10375588
-0.038304042 0.04969496 0.14322431 -0.011557738 -0.14973299 0.03237667 0.0024947745 -0.06748407
-0.096361436 0.014871744 -0.10274711 -0.06971408 0.020283224 -0.17970322 -0.0023540193 -0.12609203
0.08507256 0.048677992 0.112990186 0.064057164 -0.29186922 -0.027782494 -0.032575738 -0.06021301
0.06619751 -0.18135782 -0.010367937 -0.06420912 0.046774514 -0.3055613 0.13396108 -0.021287162
0.0021476026 0.083917655 0.10171684 -0.059297945 0.08134485 0.026350185 -0.62002754 0.20290992
0.08162019 0.0129989395 -0.03447044 0.115269646 0.25847545 0.2945469 -0.282178 -0.14718746
0.18110661 -0.045532297 -0.024058972 -0.21298106 0.22687557 -0.18117504 -0.09950509 -0.02922957

image_net.conv1.1.bias f4 [64]
00000000: a342 183d 0041 e4bd 1ffa fcbd 3646 1bbd
00000010: 6c93 343d 0efe f0bd 58fd 27be 47e8 9f3d
00000020: 59c4 2d3d dbe4 debd 89d3 0bbe af56 103e
00000030: bcac 00be 36c5 1d3e 5d3c debd 1e19 d43d
00000040: 056f acba 44e9 9b3d 6344 383e 22a8 b9bd
00000050: 274d 24be ef5a acbb 04b0 8f3d 5b48 17bd
00000060: dc90 723d cb4d 443e 0fed 80bd f459 963d
00000070: 9a24 e83d 1305 eb3d 975f a8bd f72c 7fbe
00000080: 2854 15be 684e 9a3b d6f7 47be de4f e73d
00000090: 215b 1b3e f4b9 303d 1355 10be 1ebc 3bbe
000000a0: 0802 c33d 1f05 0bbe d01c 613d 7550 2a3e
000000b0: 6b24 f0bd 86ce 753d e699 5ebb 7308 913d
000000c0: 7e4b c23d ddb5 2a3c 3e3b 833d a3b6 29bd
000000d0: 2edd 823d 809a 283d fe19 1e3e 5587 333e
000000e0: 7b1c 9aba 146f 3a3e 0d11 3ebe c1ed a9bd
000000f0: 9d91 1fbe 9f8f b2bd 36b6 173e f20b 1bbe
0.037172925 -0.1114521 -0.12352394 -0.037908755 0.044085905 -0.11767207 -0.16405237 0.07807975
0.04242358 -0.108834945 -0.13654913 0.14095567 -0.12565893 0.15407261 -0.10851357 0.10356353
-0.0013155645 0.07612851 0.17994837 -0.09065272 -0.16045056 -0.0052598636 0.07015994 -0.036934238
0.05922018 0.191703 -0.06295215 0.07341376 0.11335106 0.11475577 -0.08221357 -0.24919496
-0.14582884 0.004709054 -0.19528136 0.1129453 0.15171482 0.04314609 -0.14094953 -0.1833348
0.09521872 -0.13576172 0.05495912 0.16632254 -0.11725696 0.06001141 -0.0033966242 0.0708169
0.09487055 0.010419336 0.06407784 -0.04143394 0.06389843 0.041162968 0.15439603 0.17532094
-0.0011757755 0.18206435 -0.18561192 -0.08297301 -0.15582891 -0.087188 0.14815602 -0.15141276

image_net.conv2.1.weight f4 [64, 64, 3, 3]
00000000: 258c a23c 31a0 4fbc ed60 58bc b0b4 8cbc
00000010: 05d2 efbb d7fa c53c 6e75 e93c f551 aabc
00000020: 1fbc a13c 5658 2cbc 76a8 89bc ce44 00bb
00000030: ecf3 bf3d 22b7 f83c b256 fabc 2cc8 af3d
00000040: f2ce ec3d 9a9f b53c 1d11 1f3c c4c9 9ebc
00000050: 117e 033a c54e 663b 6023 41bc c7a3 74bd
00000060: 54cb dc3c 19c8 923d 1899 1e3d fdaf 363d
00000070: 6a28 a83d 8e76 593d d8f3 743d ae1b c6ba
00000080: 1c8b 18bd e160 173d ff8f 21bd a821 db3d
00000090: 6c11 f83d 4d84 543d 65a7 bd3d efc4 17bd
000000a0: f972 50bd 5498 833d 9a76 123e 5e4d 853d
000000b0: 3b08 d5bb e83f debd 219b 77bd ec17 98bd
000000c0: 609f febd 60a8 c3bc 440c 95bd e72c 3dbe
000000d0: 8595 93bd 0d0f 02be 648e b0bd ee98 dbbd
000000e0: b810 7dbd 0fe1 10be 5d87 1ebe 0aaa 38be
000000f0: 3545 8fbd c6b2 06be 61be 1ebe 222c febd
00000100: db0c e4bd 7e77 f9bd b99b dabd 7a1a 14be
00000110: 12f6 cebd b2ec dcbd 4fd6 2cbe 08fe 0ebe
00000120: dcab 743c c307 823d 80e6 52bc 4c0b a2bc
00000130: 2a03 093e aecd 323d c66a 623d 8e50 803c
00000140: e029 cd3c 36d8 103e 1063 1f3d b3f5 163e
00000150: 7b6c f53d 1f70 cb3d 1f10 e83d de70 8e3d
00000160: 722d 9c3d 8bd4 ba3d 145a edbd 6dd1 9ebd
00000170: eaff 76bd e434 24be 7dcd 2cbe db14 6bbc
00000180: b831 ffbd 9384 babd 73ca 1b3b cba6 33bd
00000190: 4f11 a8bd 5e73 5f3d 6330 b6bd 7178 32bd
000001a0: d32d a9bb a7bf b5bd cd61 eebd e477 76bd
000001b0: d83f 353d 6eef 1ebd 2182 8b3d 8bdb bbbd
000001c0: 5c46 303b 0772 2ebd 4f9b 2d3d 7245 5fbd
000001d0: fdb3 bfbd db28 f2bc e03c bcbd a146 ecbc
000001e0: 0a9a e93c 2bbc f4bd 770b 723d bc44 3bbd
000001f0: 9867 96bd e8ab 49bd 7b67 853d 3187 943d
00000200: 2cd8 6e3c 1161 fb3d 420b a13d 3cdf af3d
00000210: c5f1 c83d a2e8 393d 141f 7e3d aaaf 2d3e
00000220: 1a3b 133d 8f52 d13d dd9e e33d 3296 16be
00000230: 51d9 f5bc e304 f03d 1eff d53d 49a3 673d
00000240: c02d 90bd f4dd e73c dd75 7739 e5fe 57bd
00000250: 4ef8 f43d 687d 5f3c 9a2d 66bd a5e2 babc
00000260: 8a7f 3abd 733c 7bbd cbc6 45bc 4624 e5bc
00000270: c3fd 04bd e2b6 393d bae7 41bd 0226 ddbd
00000280: 35d2 b9bd d77b 7bbd 248d 1fbe 49e4 e3bd
00000290: 4e77 28be e27e 80be 91b7 37bf a2a8 95be
000002a0: 1d0b aebc 5ed7 babd bf38 58be 04f7 6a3d
000002b0: a9a0 943d f4a3 233d 97a6 6c3d 9b68 ad3d
000002c0: 2f59 a83d 0b05 913d 9750 593d 11f6 3e3d
000002d0: 7833 873c 8836 973b 5b68 f1bb 50ce 9dbc
000002e0: 4c3c 55bb 6058 81bd ae11 56bd 5918 8abc
000002f0: 93b8 13bd 463a 803d 7671 313c 2f4f 6cbc
00000300: 51fe 4d3d c9b2 94bc 32f0 b0bd c189 013d
00000310: 17b9 6c3d c887 39bb 58a6 233e 379c 3d3d
00000320: 4955 a33b cc1a ebbd 0c3e 05be fcd4 303d
00000330: 3dae 5bbe 72c5 06be 4002 293d 3d44 393e
00000340: 46d1 c83d 7239 893d 9707 0a3e a8d4 b83c
00000350: fcd6 503e 28ed e33d 6015 cc3d a7c2 0d3e
00000360: 4f18 1dbc b840 30bd bac7 cdbd 280e bdbd
00000370: 7030 28bc 7304 10bd 5bd2 cabd 64bb 06bd
00000380: f921 21bd a023 b23b d72b 7b3c 2b95 49bd
00000390: beed 52bc 8d44 b63d f58c 0fbd a513 a73c
000003a0: 65c0 823d 093f b33b 8d0d 0a3d 457f f03c
000003b0: 9139 3bbd fbec 7f3c d8eb 9a3b 05f1 9cbd
000003c0: ea04 013e 057c 853d ef5e 373d 7520 cf3c
000003d0: a48a b23d 70cc 503d a4a9 843d eeb7 db3c
000003e0: 8b97 673d 09b6 6d3a 06bf 9c3d 1614 d63c
000003f0: 5db2 a7bd 4256 8bbe 5a20 30bd 7526 ad3a
0.019842217 -0.01267247 -0.013206703 -0.017176002 -0.0073187375 0.024167461 0.028498378 -0.020791033
0.019743023 -0.010519108 -0.016803961 -0.001957226 0.09372696 0.030360762 -0.030558918 0.08583102
0.11562909 0.02217083 0.00970867 -0.019383319 0.0005016039 0.0035142165 -0.011788219 -0.059726503
0.026952423 0.07167072 0.03872022 0.04460143 0.08210833 0.05309158 0.05980286 -0.001511445
-0.03724204 0.036957625 -0.039443966 0.10699779 0.12112698 0.051883984 0.092604436 -0.037053045
-0.050890896 0.06425539 0.14303055 0.06508897 -0.0065012253 -0.10852033 -0.060450677 -0.07426438
-0.12432742 -0.023883998 -0.0727773 -0.1847416 -0.07206253 -0.12701054 -0.08620909 -0.107225284
-0.061783522 -0.14148353 -0.15481324 -0.18033615 -0.06995622 -0.13154134 -0.15502311 -0.124107614
-0.111352645 -0.121809945 -0.10674233 -0.14463225 -0.10105528 -0.107873335 -0.16878627 -0.13964093
0.014933553 0.06349137 -0.012872338 -0.019780777 0.13380113 0.043653183 0.05527761 0.015663411
0.025044382 0.14144978 0.038912833 0.14742164 0.11983582 0.09933495 0.113312 0.069551215
0.076258555 0.091225706 -0.11589447 -0.077547885 -0.060302652 -0.16035801 -0.16875263 -0.014348234
-0.12460655 -0.09107318 0.0023771792 -0.043860238 -0.08206426 0.054553382 -0.08895948 -0.043571893
-0.0051629334 -0.088744454 -0.11639748 -0.06017293 0.04425034 -0.038802557 0.068119295 -0.09172734
0.0026897406 -0.042589214 0.042384442 -0.054509588 -0.09360502 -0.029560497 -0.091912985 -0.028842272
0.028515834 -0.11949953 0.059092965 -0.045719847 -0.07343978 -0.04923621 0.06513878 0.07252348
0.014577907 0.12274373 0.078634754 0.085875005 0.09811739 0.04538787 0.062041357 0.16961542
0.035945036 0.10220825 0.11114285 -0.14705732 -0.030010851 0.11719682 0.1044905 0.056552205
-0.07039976 0.028304078 0.00023599663 -0.05273332 0.11961423 0.013640739 -0.056195833 -0.02281315
-0.045531787 -0.061336946 -0.012071322 -0.027971398 -0.03246857 0.045340426 -0.047340132 -0.10798265
-0.09073297 -0.0613974 -0.15581185 -0.11127526 -0.16451761 -0.25096804 -0.71764475 -0.2923022
-0.021245534 -0.09123109 -0.21115397 0.05736448 0.07257206 0.03995128 0.05777606 0.084672175
0.082201354 0.0708104 0.053055372 0.046621386 0.016504034 0.004614655 -0.0073671765 -0.019263417
-0.003253716 -0.06315684 -0.052262954 -0.016857313 -0.036064696 0.06261115 0.010830274 -0.014423176
0.050291363 -0.018151658 -0.086395636 0.031625513 0.057793703 -0.0028309692 0.15981424 0.046291556
0.004984532 -0.114797205 -0.1301195 0.043171868 -0.21453185 -0.13161257 0.04126191 0.18092437
0.09805541 0.0670041 0.13479458 0.02256234 0.2039451 0.11129218 0.099650145 0.13843785
-0.009588315 -0.04303047 -0.100478604 -0.09231216 -0.010265455 -0.035160493 -0.09903403 -0.032893553
-0.03933904 0.0054363757 0.015330276 -0.049214523 -0.012874065 0.08899794 -0.035046536 0.02039511
0.063843526 0.005470161 0.03370433 0.029357562 -0.045709196 0.015620465 0.004727822 -0.07663158
0.12599531 0.065177955 0.04476827 0.025284031 0.0871785 0.050976217 0.06477669 0.026821103
0.056541007 0.0009067958 0.07653622 0.026132625 -0.08188317 -0.27214247 -0.042999603 0.0013210314

image_net.conv2.1.bias f4 [64]
00000000: 5cfe ea3c d32b 753c 8a59 3a3a 9a70 203d
00000010: 6317 e63c 54ca e83b 07ce f03c 3924 c039
00000020: 114b 86bc c0c3 873b ee62 033d 3222 803c
00000030: 0b33 a73c 7b9e dcbc 48d4 b9bc 86ab a5bc
00000040: e9ca cabb 694c ce3c 453f 283d 9e2c 3cbb
00000050: 705f 05bd 21c1 023d 94a9 e739 49e8 b4bc
00000060: 8400 483c 2f96 48bb a2bf bbbc 9503 cb3c
00000070: 0a41 33bc 7baf 9f3c dcbb c93b 194b 87bb
00000080: 5d09 a0bc 9ae7 1a3d 6306 0d3d 888b 233d
00000090: 2a5a b23c 046f b3bc b3fd 1abc 6fe3 ba3b
000000a0: 31ab bbbc 4cc5 bdbc 6822 093d 2cc5 c5bc
000000b0: c2dd fa3c cf07 87bc fba7 37bb c050 ba3c
000000c0: 2143 a73c c6b5 aabc 4182 413b 7844 39bc
000000d0: 6a93 d33b 6651 d13c 8204 b13c b430 41bc
000000e0: abd7 12bd ed8f 123d f3ec fe3c d4bf 7d3c
000000f0: 9729 983c 8793 7ebc 4c9f 3bbb 64cd 7cbc
0.028685741 0.014964062 0.0007108679 0.039169885 0.028087324 0.0071041975 0.029395116 0.00036648082
-0.016393216 0.0041432083 0.03207677 0.015641306 0.020410081 -0.026931038 -0.022684231 -0.02022339
-0.0061887396 0.02518292 0.041075964 -0.0028713117 -0.03256172 0.031922463 0.000441861 -0.022083418
0.012207154 -0.0030607095 -0.022918526 0.024781981 -0.0109407995 0.019492855 0.006156428 -0.0041288254
-0.019535715 0.03781853 0.03442992 0.03992799 0.02177151 -0.021903522 -0.009459901 0.0057033817
-0.022908779 -0.023165368 0.033480078 -0.02414187 0.03062332 -0.016483216 -0.0028023708 0.022743583
0.020417752 -0.02083863 0.00295271 -0.011307828 0.006456782 0.02555151 0.021608595 -0.011791397
-0.03585021 0.03578179 0.031118846 0.01548763 0.01857452 -0.015538103 -0.0028628884 -0.015429828

image_net.conv3.1.weight f4 [64, 64, 3, 3]
00000000: 78f3 0cbe 0800 21be 5ca5 92bd 5c03 63be
00000010: b4eb 38be 33f1 d3bd 0b72 ffbc 220d 5fbd
00000020: 2b2b 55bc 406b e4bc c968 043b f7d1 a2bb
00000030: 80a4 0abd 7a42 453d 4e51 a93b 73b5 1fbb
00000040: c478 423d be1f 7b3c d047 813c 67b7 b33d
00000050: 2815 513c bd86 883d 2f23 2a3b ba5d 91bb
00000060: 6c55 d13c aab4 1f3c 30f2 1e3d d4e5 a03d
00000070: 6d47 f43d d08c b03d 6915 693d e62b dc3d
00000080: 4b25 473d 5159 bd3c ded7 bf39 b5d5 423d
00000090: fa19 b03d 20ee 213e 8690 193e f423 6f3e
000000a0: 2d3f 653e 038d 4a3e 698b 313e 63d4 553e
000000b0: c493 1a3e 2773 b1bd 26a7 7cbd f8b3 26be
000000c0: 2d9c 61bd c605 7a3c ab25 8abd ff02 0cbe
000000d0: 504a 6abd cf66 03be a843 713c c70e 1c3d
000000e0: ded9 3cbc c373 26bd 6069 7bbd e186 b0bc
000000f0: 5c3e 4c3c 0502 cb3c 7f82 20bd 0029 373d
00000100: 8c3d b43c 0b43 b53d 3db4 08bc 5f84 4dbd
00000110: 6437 b9bc 1a82 533c a228 dcbc dd53 713c
00000120: af4a f63c 1c9e 4e3d 0eaf 16bc c0a0 8c3d
00000130: e654 0a3e eac3 933d 7f1a ba3d 67b2 ab3d
00000140: ae73 973d fd99 403c 609f 44bd be47 dd3c
00000150: df2b 213d b003 fe3d 3565 2a3d a670 303d
00000160: f57e 9e3d 2d82 873d 3e7b dfbc 91ad 9bbb
00000170: 0f6e 84bd 10fa bf3b 13d8 0a3e 5789 163c
00000180: a457 d4bd 607b a1bd 00ff f1bd 2e23 89be
00000190: 5d4f 7fbe 28d3 25be f699 b0be 7f52 2dbf
000001a0: 7ddb adbe 2459 4bbe ba2a a4be cf53 7abe
000001b0: a951 603b 2b98 68bb cada 16bc b4d7 063d
000001c0: b667 b13b bee9 15bc 40d9 6abc 2ff9 a3bc
000001d0: c5f7 5bbb b18f d1bc 87e1 3d3d 96e2 86bd
000001e0: ce74 25bc 0cec 363e f2f6 86bb da5b d3bd
000001f0: ff97 96bd 604b 83bd 8cb6 46bd c899 a9bd
00000200: 06df b2bd 1635 a0bd 9524 fa3c fc81 5bbd
00000210: da4e cfbd a190 07bd 52f7 aebd 5d34 843d
00000220: 8c56 1d3e f998 d03c 4965 4b3e 803e a23e
00000230: d5db 153e 3c3d be3c 0bd9 043e d511 663d
00000240: 4e5a 803d e355 813d 6ddc 013d 42f3 b73d
00000250: 5a32 c63e 17aa 103e e2d1 533d ac4b e73d
00000260: 88ad 6d3d e1ac 8f3d 9bbc 203e 97c6 b33d
00000270: 3e88 6e3e 545d b23b fe96 673e 0d42 b73d
00000280: cd02 b53d ca64 8e3d fd34 a7bc b3b9 983c
00000290: d63a 68bc c588 5dbd 8c41 18bd e618 43bd
000002a0: 4de1 5dba 1081 b53c e71a 29bc b461 6cbd
000002b0: 9a12 d43c bd8a 5bbd b0de 3abb dd38 d53d
000002c0: 342f 463d 4a80 b1bd e67e bfbd b459 ebbd
000002d0: 272e 3b3d 4c02 fcbc 37a4 d43c 0272 0a3d
000002e0: 80ea 153d e4fc 10bd ae30 35bd ec67 44bd
000002f0: aa8e 97bd 3c45 39bc 11d0 733b 9018 91bd
00000300: 95b1 e3bd 386c cebd 0a95 8fbd 1651 8d3c
00000310: c09c cdbd a345 56bc c610 56bd 3b49 4fbd
00000320: 9c77 f7bd 6d02 a7bd 965b 163c 8998 54bc
00000330: ffd9 30be 2660 13be df11 fbbd 909b edbc
00000340: 068f 74bc d93b 6b3c 5f1f 643d 8e38 cbbc
00000350: cef4 39bc fc7e 153c 90bc 863c 1c6e 1abb
00000360: 4134 99bb 39fa 123d b3f7 203c 7ed9 0c3d
00000370: 7b41 2b3d e636 e43a 1552 0a3d afd9 4c3d
00000380: 3216 183d cefc 963c 7c01 e13d b4db a03d
00000390: aa93 c03d 0afc a43d d3f6 a23d c95c c73c
000003a0: 7e6d f13c 723d 8fbb a7a5 2139 2f44 9bbd
000003b0: 1901 71bd d5e8 6bbd ed69 023d f9f9 25bd
000003c0: e848 52bd 0f72 a9bd 42d6 83bd da27 853d
000003d0: 200e a7bc 4ed5 1d3d f2fd 84bd 31d5 00be
000003e0: e50c d7bc bc47 53bd 0f55 2dbd 676f 213c
000003f0: ce93 ba3d f5bd 933d 7ce6 b23d ebd4 403d
-0.13764751 -0.15722668 -0.07160446 -0.2216925 -0.18058664 -0.103487395 -0.03118231 -0.054455884
-0.01301078 -0.027883172 0.0020204058 -0.0049688774 -0.033848286 0.0481591 0.005167163 -0.0024369627
0.047478452 0.015327392 0.015781313 0.087752156 0.012761392 0.06666324 0.0025960912 -0.004436222
0.025553428 0.0097476635 0.038805187 0.07856336 0.11927686 0.08620608 0.056905184 0.107505605
0.04861955 0.023113878 0.00036591192 0.04756709 0.08598705 0.15813494 0.14996538 0.23353559
0.22387381 0.19780354 0.17338337 0.208818 0.1509543 -0.08664542 -0.061682843 -0.1627959
-0.05508058 0.015260166 -0.06745466 -0.13673018 -0.057199776 -0.12832187 0.014725603 0.03810003
-0.011526553 -0.040637743 -0.06137979 -0.02154869 0.0124660395 0.024781236 -0.03918695 0.044716835
0.022002004 0.08850678 -0.008343753 -0.050175067 -0.02260942 0.012909437 -0.026874844 0.014729467
0.030064909 0.050443754 -0.00919701 0.06866598 0.13508949 0.07215102 0.09087085 0.08383637
0.07395111 0.011755464 -0.048003554 0.027011748 0.03934848 0.12403047 0.041600425 0.04307618
0.07739059 0.06616626 -0.027280446 -0.0047509153 -0.064663045 0.005858667 0.13558988 0.009188018
-0.103682786 -0.0788486 -0.118162155 -0.26784652 -0.24932618 -0.16193831 -0.34492463 -0.67704004
-0.3395652 -0.19858223 -0.32063848 -0.24446033 0.003422836 -0.003549109 -0.009207437 0.032920554
0.0054139746 -0.009149967 -0.014334023 -0.020016281 -0.003356443 -0.025581213 0.046357658 -0.065861866
-0.010098649 0.17863482 -0.0041187936 -0.10320254 -0.0735321 -0.06410861 -0.048513934 -0.082812846
-0.087339446 -0.07822625 0.030535022 -0.05359076 -0.101224616 -0.033096913 -0.08543266 0.064553
0.15365046 0.025463568 0.19862856 0.3168831 0.1463464 0.023222558 0.1297342 0.05616935
0.06267224 0.0631521 0.031704355 0.089819446 0.3871029 0.14127384 0.05171383 0.1129373
0.05802682 0.07015396 0.15696947 0.087781124 0.2329416 0.0054432545 0.22616193 0.08948145
0.08838425 0.06952818 -0.020411009 0.018643236 -0.014174184 -0.05408551 -0.037171885 -0.047631167
-0.00084640534 0.022156268 -0.010321355 -0.057710364 0.025887776 -0.053599108 -0.002851408 0.104112364
0.04838486 -0.08667047 -0.09350376 -0.11491719 0.04569831 -0.030762814 0.02595721 0.033800133
0.03660059 -0.035397425 -0.044235878 -0.04795067 -0.07400258 -0.011308011 0.0037202875 -0.07084763
-0.111178555 -0.10079235 -0.07010849 0.017250579 -0.10039663 -0.013078126 -0.05226209 -0.050606947
-0.120833606 -0.081547596 0.009177109 -0.01297582 -0.17270659 -0.14392146 -0.12259268 -0.029004842
-0.014926678 0.0143575305 0.05569398 -0.02480724 -0.01134987 0.009124514 0.016447335 -0.0023564165
-0.0046754186 0.035883162 0.009824681 0.034387104 0.041810494 0.001741138 0.033769686 0.050012287
0.037130542 0.018431094 0.10986611 0.07854405 0.09403165 0.08055885 0.07957234 0.024336236
0.029471155 -0.0043713385 0.00015415867 -0.07581364 -0.058838937 -0.057595093 0.0318393 -0.040521596
-0.05133906 -0.08273708 -0.06437351 0.06501742 -0.020392478 0.0385335 -0.06493749 -0.12581326
-0.026251266 -0.051582083 -0.042317446 0.009853221 0.09110223 0.07213966 0.08735368 0.047078054

image_net.conv3.1.bias f4 [64]
00000000: 2fae 8cbc 69f1 153d b918 1fba 7c3d a4bc
00000010: 252c 30bc b473 2a3b 8fab 103d 0958 3bbc
00000020: b682 02bd 3814 8b3c 49d6 d5bb 5134 d7bc
00000030: b8fc e63b 8077 b0bb 1825 273d da28 d1bb
00000040: af57 43bb d5b9 8f3c f844 dcba 5bf3 51bc
00000050: a2fe 4fbc 86a0 15bd 633b 1f3c 876f ea3c
00000060: a825 26bd 2061 d83c 8e25 c03b a86b 043d
00000070: 1080 e63c a2ee 3e3c 9b20 043b b60a 623b
00000080: c1b6 db3b e7cb 843c d961 e83c b231 1c3d
00000090: 476f 223d adde 4cbc 0561 86bb a05d 223d
000000a0: b56d 163d 4fa0 42bc 8aba a33c 2fb7 7d3c
000000b0: 9de2 ffbc 947c b13b bf1a 92bc 9c62 8f3b
000000c0: 125a cabb 213e afbb f7e9 133d f812 00bd
000000d0: 033f a7bc e77b 813c 6444 94bc 9f68 7c3c
000000e0: 2f1f adbb b6eb debc 90fb 00bd a9af 08bd
000000f0: 83bd 793c edfd 3d3c bd74 4e3c 0ae3 353b
-0.017172901 0.03660718 -0.00060690526 -0.02004885 -0.010752712 0.0026008906 0.03531986 -0.011434563
-0.031862937 0.016977414 -0.006525789 -0.026270064 0.0070491694 -0.0053853393 0.04080686 -0.0063830437
-0.0029806902 0.017544666 -0.0016805222 -0.012814368 -0.012694987 -0.03653004 0.009718749 0.028617634
-0.040563256 0.0264135 0.005863852 0.03232923 0.028137237 0.011653574 0.0020161036 0.0034491247
0.0067051356 0.01621051 0.02836697 0.03813333 0.039656904 -0.012504262 -0.004100921 0.03964007
0.03672572 -0.011879041 0.01998641 0.015485569 -0.031235987 0.005416462 -0.01783502 0.004375769
-0.006175288 -0.0053479825 0.0361118 -0.03126809 -0.020415789 0.015806152 -0.018099017 0.015405803
-0.0052832584 -0.027212005 -0.03148991 -0.033370648 0.015242937 0.011596185 0.012601075 0.0027753734

image_net.conv4.1.weight f4 [64, 64, 3, 3]
00000000: e1af c43d 2b76 e53d 53c5 283d 7922 953d
00000010: 3790 263e 8fd0 de3d e3a6 23bc ebbc a73c
00000020: 5b12 4a3c 289f 893d ed2c ad38 947d a5bc
00000030: bc23 663d 4cfc d03d b3e5 c6bd 83b4 3c3d
00000040: a34a 01bd 4230 143d 40ff 8c3d 2715 9a3d
00000050: 7011 be3d 1166 3d3d b512 1fbd 7087 373c
00000060: df40 ae3d 9ca7 8a3c 2147 b03d 4d8a b7bd
00000070: 59c8 bfbd 1399 a4bd 3ace 28bd 6bc8 13be
00000080: de3b 3ebe 72d8 bdbd 12e2 e4bd 97fe e5bd
00000090: 91d0 1b3d 11d8 983d 61a6 103d d3f4 0e3e
000000a0: ad90 e63d eeb5 cd3d c4a9 b53d b666 e53d
000000b0: 7f46 b43d 3708 40be 402e 0cbe 9bae 07be
000000c0: 124f 25be 3dfc 3b3c cbfc 9cbc 9307 febd
000000d0: 7958 d5bd 2f0a 9bbd 852f 00be e232 48bd
000000e0: 38ac 5dbd cdae a7bc ed4d 18be 4ef8 76bd
000000f0: 645c 91bc 8647 6abc 3226 a2bc f6eb e9bd
00000100: 7530 fbbd e816 cdbd 8fee 28be e7ab bcbd
00000110: e798 07be 94ca 0dbe 9aa0 37be 6b91 debd
00000120: c425 8f3d 54ce 8f3d bcbb a23d cbaf 903d
00000130: 7039 18be 3fed d93c e84e 433d 8ded 68bd
00000140: 7187 4b3d 1256 263d 7ad1 cc3d 9f4a 503d
00000150: 05e9 323e 8b19 183e cdc3 af3d c390 c73d
00000160: 332a fa3d cd69 8bbc ce8d 293d 0f2d 863d
00000170: d834 b4bc a769 d33d 5d11 243e 85ed 583c
00000180: 3515 1dbc 59b2 683d 470b 31bb 8dbc cb3d
00000190: 5696 db3d 0f08 ba3d aa76 ee3d be9b 533e
000001a0: b6d3 013e abad 043e b978 0d3e c824 da3d
000001b0: 2f71 50bd 8832 7cbd 56d2 31bd 79a2 e9bc
000001c0: 4394 19bd 00e0 5abb 62f4 163c 676b af3b
000001d0: b989 253d 9b57 e23d d109 143d 7437 843d
000001e0: 989f a73d 5b6f 9bbc 022c 313b e9ad df3d
000001f0: f41c 10bd 41b1 b43d 3aa2 4a3d a03c b63c
00000200: a005 a5bb 565c df3d c5cd b13d f699 d63b
00000210: b598 a73c 88a3 5b3d 0c38 d93b a691 853d
00000220: 68a2 b53d d766 603d 8a5c e83d 825d 663e
00000230: cac9 ad3d 679a 473d 01fe 953d 5ffb 083d
00000240: 0155 dcbd 6278 2fbe 3a00 9fbd c1ba c2bd
00000250: facc 8cbe 198a 15be 68d4 62bc 433e 17bd
00000260: 6dda 40bb faea 45bd 53e9 9bb9 a7be 0bbe
00000270: fc6a 03bd 60a5 243d 2ef2 99bd ecb8 0bbe
00000280: 6e48 aebd b554 33be a63f 943d f88d a63d
00000290: f513 ab3d 11ce 1c3e ec96 043e a6b0 933d
000002a0: cc64 793d 28e9 ba3d 8c8a 783d 71f7 c0bb
000002b0: 94b7 a83b d2ab 2a3c 70fa 30bc 0abb 99bc
000002c0: 57fc 3bbb c13f 88bc 077f a8bc 2789 83bb
000002d0: 97e1 b13c 80a8 3a3d b2ed 8b3d 3214 b83d
000002e0: f9d5 963c 549a bb3d 5482 343d cb62 4f3d
000002f0: cc00 123d d820 5abd 21b5 e83b a535 a0bd
00000300: 4cac 86bb 1a2f 023d 5a00 323d 21b7 c43c
00000310: 9631 4a3d 66c0 edbd 129d 513e 96e1 4f3e
00000320: 4a72 2d3e 3de2 413e 2b8e 1c3e fbc6 443e
00000330: 353c 4b3e c13a 353e b69d 273e 7084 9d3d
00000340: 3144 573d 3c78 253d 7147 7d3d 7601 313d
00000350: afe7 8b3d 4455 b63d 1a8d 293d a2d4 0f3d
00000360: 8907 0ebe c1f6 39be 13cc d7bd c9a6 67be
00000370: a1f2 91be fd2d 77be bc1d 0cbe 73af 59be
00000380: 5756 f2bd 4e2b 06be 6afc 05be 9ffe f6bd
00000390: 7403 4dbe 982a 13be 32bb 33be e35e 20be
000003a0: 4461 4fbe 7fbe 0abe 8a0c 6bba f28c afbd
000003b0: c967 8cba 25a2 41be 317a 60be 66e5 1bbe
000003c0: 8aaf c6bd 1c8f 4fbe c82e 24be 55e9 0e3e
000003d0: 55d7 be3d f8d2 593d f1e3 f13d 5b51 433d
000003e0: 4f5c cf3d 1953 a13d a290 8d3d 3a34 9f3d
000003f0: a79f bf3b 7455 c43d 5c54 f03c 37ab 183d
0.09603859 0.112041794 0.041203808 0.07281966 0.16265951 0.10879623 -0.009988519 0.020475825
0.012333478 0.0671981 8.257651e-05 -0.020201482 0.056186423 0.10204372 -0.097117804 0.046070587
-0.03156532 0.036178835 0.068846226 0.07523566 0.0928067 0.046239916 -0.0388362 0.011201724
0.08508467 0.016925626 0.08607317 -0.08961926 -0.09364385 -0.08037009 -0.041212298 -0.14431922
-0.18577525 -0.09269799 -0.11175932 -0.112302 0.0380407 0.074630864 0.03531492 0.1396058
0.112580635 0.10044466 0.08870271 0.11201231 0.088025086 -0.18753134 -0.13689518 -0.132502
-0.16143444 0.0114737125 -0.01916351 -0.124037884 -0.104172654 -0.07570302 -0.12518127 -0.04887665
-0.05411932 -0.020469094 -0.14873476 -0.060295396 -0.01774425 -0.014299279 -0.019793604 -0.11421959
-0.12265102 -0.10014135 -0.16497253 -0.09212475 -0.13241921 -0.13846809 -0.17932358 -0.1086758
0.06989625 0.07021776 0.07945964 0.0706478 -0.1486566 0.026602386 0.047682673 -0.05686717
0.049689714 0.040609427 0.10000892 0.050852414 0.17471702 0.14853494 0.08582268 0.09744408
0.1221508 -0.017018223 0.041395 0.06551563 -0.021997854 0.10322886 0.16022249 0.013240223
-0.009587576 0.05681071 -0.0027014778 0.099480726 0.10722034 0.09083568 0.11643727 0.2066488
0.12678418 0.12956874 0.13815583 0.10651547 -0.05088919 -0.061571628 -0.043413483 -0.028519856
-0.03749491 -0.0033397675 0.009213539 0.0053533795 0.040414546 0.11051866 0.036142174 0.06455889
0.08184737 -0.018973997 0.0027034287 0.109218426 -0.03518386 0.08822871 0.049471118 0.022245705
-0.005036071 0.109062836 0.086818255 0.0065491153 0.020458559 0.053622752 0.0066289958 0.06521921
0.08868867 0.054785576 0.113457754 0.22496608 0.08485754 0.048731234 0.07323838 0.03344285
-0.10758401 -0.17135766 -0.07763715 -0.09508277 -0.27500135 -0.14603461 -0.013844587 -0.03692461
-0.0029427067 -0.048319794 -0.00029737744 -0.13646947 -0.03208445 0.040196776 -0.07516895 -0.13644761
-0.085099086 -0.17512782 0.072387025 0.08132547 0.08353416 0.15312983 0.12948197 0.072114274
0.060887143 0.09126502 0.060679004 -0.0058888723 0.0051488373 0.010416942 -0.010801896 -0.018765945
-0.0028684342 -0.016631963 -0.020568384 -0.0040141526 0.021714015 0.04557085 0.06832446 0.08988227
0.018412577 0.09160295 0.044069603 0.050631326 0.03564529 -0.05325398 0.0071016704 -0.07822732
-0.004109895 0.0317832 0.043457367 0.024013104 0.049363695 -0.11608963 0.20470074 0.20300898
0.16938129 0.1893396 0.15288608 0.1921653 0.19847186 0.17698194 0.16368756 0.07691276
0.052555267 0.040397868 0.06183571 0.043214284 0.068312995 0.08902982 0.04139433 0.03511489
-0.13870062 -0.18160535 -0.10536971 -0.22622217 -0.28505424 -0.24138637 -0.13683218 -0.21258335
-0.11832874 -0.13102457 -0.1308457 -0.12060284 -0.20020849 -0.14371717 -0.17551878 -0.15661196
-0.20251948 -0.13549231 -0.0008966407 -0.08571805 -0.0010712083 -0.1890951 -0.21921612 -0.15224227
-0.0970145 -0.20269436 -0.1603347 0.13956197 0.09318415 0.05317971 0.118110545 0.04768501
0.10125028 0.07877178 0.06912352 0.07773633 0.0058478895 0.095866114 0.0293371 0.03727266

image_net.conv4.1.bias f4 [64]
00000000: d7f4 d7bc e89b fd3c e227 02bd 3d8b 8d3c
00000010: cf4d f5bc d777 a53b 95a4 233d 2eec 94bc
00000020: 6144 0d3d ec8e 0a3b a9f9 87bc 42c2 96bc
00000030: 266c b53c e373 31bc b776 3ebc 98b9 b53c
00000040: b1c0 70bc 582f 683c 034a b4bc 8242 e83c
00000050: 6970 1b3d 129d 233c f1fb db3b 77cc ccbc
00000060: 16d4 e0bc 56b7 37bc fa2e 2b3c 0ee8 bbbc
00000070: fc86 f33c 4e19 d0bc a74d 2bbc ae5d efbc
00000080: 0c23 fabc e73a ce3c 11fa c33c a78d c33c
00000090: 4d7c cabc bd41 d2b9 9da3 8a3b 74fa e6bc
000000a0: d53c a7bc 7988 9b3a d01b 87bb 537e 09bd
000000b0: 14e2 23bc fe5c f4bc 5c9b 283d 6207 873c
000000c0: a88c c1bc 3797 5ebc 78c7 16bd a884 06bd
000000d0: 67a3 ed3c 9f73 813c 2562 17bd 6a0a 0b3d
000000e0: a9a4 03bd 2079 1d3c e739 13bd ac04 0b3b
000000f0: d256 1abd 3137 90bc 6dda 92bb 4d7a 1fbd
-0.026361866 0.030958131 -0.031776316 0.017278308 -0.029944329 0.0050496864 0.03995188 -0.018179026
0.03448904 0.0021142317 -0.01659854 -0.018403176 0.022146296 -0.010830852 -0.0116249835 0.022183225
-0.014694379 0.014171444 -0.022007948 0.028352026 0.037949 0.009986179 0.0067133834 -0.02499984
-0.02744488 -0.011213144 0.010448212 -0.0229378 0.029727452 -0.025402691 -0.0104555255 -0.029219475
-0.03053429 0.025174571 0.023922952 0.023871256 -0.024717474 -0.000401033 0.00423093 -0.028195597
-0.02041475 0.0011866234 -0.0041231886 -0.033567738 -0.010002632 -0.029829498 0.041163787 0.016483013
-0.02362664 -0.013585857 -0.036811322 -0.032841355 0.02900858 0.015802203 -0.036958832 0.03394548
-0.032139454 0.009611398 -0.03594389 0.0021212501 -0.037680455 -0.017604442 -0.004481605 -0.038934994

image_net.final.0.weight f4 [3, 64, 1, 1]
00000000: c504 4fbd 35d4 813b f8b6 f13b f77a d1bc
00000010: 4200 f6bd 5bbc d7bd 8e40 91be d2ec 4dbc
00000020: d5eb f53d 3c50 b5bd cf1b 963e 2cd4 f03e
00000030: 0b59 0fbe 7ee6 803e cac8 283e 18ca dcbd
00000040: b0df 563d 68e0 293e 2995 a53e 1cdb 21be
00000050: 6045 873e 19e7 d9bd 4619 73be 6af0 30be
00000060: 8ab1 9cbe 2627 e1bd 7eb7 7fbe 78d7 9fbd
00000070: c5f2 c1bd c986 5fbe a2df d4be 6455 e7bd
00000080: 1c67 7b3b 089e 13be 05d7 d1bd 7e7a b93e
00000090: ba1b 893e f865 15be fec4 e03a 6f7b 143e
000000a0: c8c0 833d 3090 b9be 9dcb 273e ffa0 38be
000000b0: bc65 57be 9e86 eb3d 3857 163e 301d f6bb
000000c0: 11a5 843e 2f5d 453e b8df 8b3e 73a8 2bbe
000000d0: 75e2 2a3c b51b 0dbe 35a3 d3bd d939 833e
000000e0: 6279 23bd c2f3 05be 8936 0f3e d5d7 17be
000000f0: 04e3 013b e5f5 823e 0dfc 1cbe cc92 8cbd
00000100: 45a3 36be d37f 90bd e101 c8bc 12ee d1be
00000110: e3b5 ca3e 90bf d63d 092f 91be 5c89 4ebb
00000120: 2bee f13d 3d23 64be 6870 aa3e ce17 89bd
00000130: ea47 c1bd f063 01bd 5489 47bd 708f e7bd
00000140: 18c7 08bb e397 6c3d 6fc9 ebbd fdfc 8b3d
00000150: 1549 a43c 7bcd 593d 880c c5bb 6a56 bfbb
00000160: cb9b 59be 8a1e 2fbe 6dae 8abe 1763 ccbe
00000170: 6737 e0bd f3e3 1cbf 8abf ebbd 8b61 96be
00000180: afa2 1fbe ad86 06be 4696 02be dab4 bd3d
00000190: a527 b13e e771 a0ba b9ba 653e 1bba a33e
000001a0: 5fdd 63be 2919 273c 0717 b23d 6de0 9a3d
000001b0: 5486 5bbc 367e 003e cf21 003f 572c 52bd
000001c0: 5fd6 87be d7c9 483c 889c 9f3e 5ccf fa3d
000001d0: 6552 7c3e f423 d0bd 3050 97bc 5a01 df3d
000001e0: c11d f2bd 5b3b 423e 6bd1 8f3e 7e94 5ebc
000001f0: 0841 0a3e e855 d53d c9be 00be 5731 6ebe
00000200: 1234 87bd 2eb6 22be 5dbc 0dbe 6590 9abd
00000210: 75d0 a03e 0d3e 0abc 0a5d 41bd 2f27 503e
00000220: 57f8 caba c037 e3bd 4fd2 923e 648a 173d
00000230: 963d 70be 8dc4 3ebd c218 cd3b b0dc 8ebd
00000240: 990a f3be 36b5 863d 9630 27be 383b 4b3d
00000250: a816 7a3e 9a24 693c 1863 03be 02cb ff3c
00000260: 2e73 80be fdad c3bd 8427 20be caf8 a0bd
00000270: 5ebf 35bd ddd6 c2be 8368 a5bd 4676 4abe
00000280: aad6 e33c 50a7 e1bd 26ba c1bd cd2b 7c3d
00000290: d5a6 a23e 437b 08bf 6823 0b3e d0dc c53d
000002a0: 4427 81be 4011 163b 1e69 e63d 6714 4fbd
000002b0: 10b2 c8bc fa59 ba3d b414 273e 269f 313e
000002c0: da67 86bd a472 0a3e f60a 2b3e 0262 98bb
000002d0: ccbe 883e ce0e 39bd f2fc 87bd 75f1 2d3e
000002e0: dc9a 4bbe 9c5e 6ebe baa4 9e3e ebe9 57bd
000002f0: d9bd 8f3e 9403 bf3d 022d b4bd 55a3 84bd
-0.050541658 0.0039620646 0.007376548 -0.02557133 -0.12011768 -0.10533973 -0.28369564 -0.012568669
0.12007872 -0.08853194 0.2931809 0.47036874 -0.13998811 0.25175852 0.16482845 -0.10780734
0.05245942 0.1658951 0.32340363 -0.1580624 0.26420116 -0.106397815 -0.2374011 -0.1727921
-0.30604202 -0.10993795 -0.2497234 -0.07804769 -0.09470133 -0.2182876 -0.41576868 -0.11295584
0.0038361019 -0.14415753 -0.1024609 0.36226267 0.26778966 -0.14589679 0.0017148552 0.14500211
0.064332545 -0.3624282 0.16386266 -0.18030165 -0.21034902 0.115002856 0.14681709 -0.0075108036
0.25907186 0.19273828 0.2731912 -0.16763477 0.010429968 -0.137801 -0.10333864 0.25630072
-0.03991068 -0.13081267 0.13985647 -0.14828427 0.001981915 0.25578228 -0.15330525 -0.06863937
-0.1783572 -0.070556305 -0.024414958 -0.41001946 0.39591894 0.104857564 -0.28356197 -0.0031514978
0.11813005 -0.22279067 0.33288884 -0.066939935 -0.09437545 -0.03158945 -0.04871495 -0.113066554
-0.0020870622 0.057762038 -0.1151303 0.06835363 0.02005438 0.053174477 -0.0060134567 -0.005839159
-0.21250837 -0.17101493 -0.270862 -0.3991935 -0.10948067 -0.6128532 -0.115111426 -0.29371294
-0.15589403 -0.13137312 -0.12752637 0.0926301 0.3460056 -0.0012240977 0.2243451 0.31977925
-0.22252415 0.01019887 0.08695798 0.07562337 -0.013398726 0.12548146 0.5005159 -0.051311817
-0.2653074 0.012255154 0.3117411 0.12246582 0.24640806 -0.101631075 -0.018470854 0.1088893
-0.11822081 0.18967955 0.2808946 -0.013585208 0.1350137 0.10416776 -0.12572779 -0.23261009
-0.066017285 -0.15889809 -0.13841386 -0.07547072 0.3140904 -0.008437646 -0.04720787 0.20327447
-0.0015485388 -0.11094618 0.28676078 0.036997214 -0.23460993 -0.046574164 0.006259055 -0.069756866
-0.47469023 0.06577532 -0.16327128 0.049617022 0.24422705 0.014229918 -0.1283077 0.031224731
-0.25087875 -0.0955467 -0.15640074 -0.07859953 -0.044371955 -0.38054553 -0.08076575 -0.1977168
0.02781232 -0.110182405 -0.09459333 0.06156521 0.31767908 -0.5331308 0.13587725 0.09661257
-0.2522527 0.0022898465 0.11250518 -0.050556567 -0.02449897 0.09099193 0.16316491 0.17345867
-0.06562777 0.13520294 0.167034 -0.0046503553 0.26708066 -0.045180134 -0.06640042 0.1698664
-0.19883293 -0.23278278 0.3098505 -0.052713316 0.2807453 0.09326854 -0.08797647 -0.064764656

image_net.final.0.bias f4 [3]
00000000: daad 22be a556 523d 9bd0 8dbd
-0.15886632 0.051352162 -0.06924554

mask_net.conv1.1.weight f4 [64, 3, 3, 3]
00000000: 99d1 813d 8339 4ebe f27b 24be 52df 0dbe
00000010: 8624 1f3e d49f 21be 6c53 71be 981f 51bd
00000020: ed1f 3d3d 0ca3 303e f6be 8d3e 9006 853e
00000030: d84a a73c b040 823e c7eb 4abd e55f 403e
00000040: 8a97 6f3e 39d0 3dbd 4b2e 11be c056 803d
00000050: 229a 4abe 4ddc aebd bec4 95bd 7f8d e7bc
00000060: 4a10 d7ba a69b 1fbe 2803 f4bd 47d5 ef3c
00000070: b39c ea3d 4833 46be 9e17 5b3d fc25 96be
00000080: 1613 19be 9e06 9bbd fa81 1cbe 7b1c 8bbd
00000090: becc dd3d f627 f7bc 160c 09be f981 c5bd
000000a0: e0bc 9abd bed8 27be c48f 793e cf5a 5c3e
000000b0: 270e 433e 116f 1cbe d7da 923d 28ad 063d
000000c0: 3f07 b63c 4102 59be e108 143e 636d 893e
000000d0: 5fa9 143e ed64 6e3e 46ac 7a3e a557 583e
000000e0: f855 aebc 2d0c 153f d37a cb3e 69f9 873e
000000f0: c418 febd 2107 343e 09d7 603d 2577 19be
00000100: 1061 123e f4c6 bebc 7471 2f3e 947f 263d
00000110: d4a5 073e aa28 cf3c dc0b 843d f37a 28be
00000120: c170 7cbd f475 9ebd 9907 55bd a39c 803e
00000130: 7108 843d eaf0 433e be34 773d b5fc c33c
00000140: f037 2bbc cf4c 193b 7d6c 083d b3ed 59bc
00000150: 939c 143d 237d d3bd 7e43 7f3b b4f8 09bd
00000160: 38c6 a73d a904 f9bc b087 75bc 6d47 04be
00000170: cb5a b03d 0163 8b3d f14d 443d ff5e f63b
00000180: ec10 4abd 7be1 1bbd bdd8 3b3d e701 6c3c
00000190: 8941 bf3d 7c83 8dbd 92be d6bd e9b6 8b3d
000001a0: fe85 50bc fc21 bc3d 799d 38bd e487 25bb
000001b0: f93a d23c 7382 8a3d e6f7 b33c 334a bbbd
000001c0: 11cf 79be e0a7 51be 691d 46be 7e82 f3bd
000001d0: 4783 5cbe 1ba7 39be 5560 d0bd c436 443e
000001e0: 040c be3d af24 cd3d ffc5 df3d e0cf 0b3d
000001f0: 1fa7 e03d a1c6 693e f9b0 163e 99d2 22be
00000200: 25e6 d53d 87a4 883e ea0a b53d 1758 263c
00000210: 1839 db3d 2d3a 933e fa2a 333e 6c93 993d
00000220: 1818 593d 47b9 edbd 133f 9bbd e5ff bbbc
00000230: 94f5 a33d 719d 2e3d a00c a0bd 88d9 6b3d
00000240: e419 c0bd 77c3 7e3d a72e 7b3d 3d6a c13d
00000250: fddf c6bd ea7a 97bd 71a2 80bd 086e b43d
00000260: 950f 19bc 0972 3a3c 0328 e8bd e498 453d
00000270: 3ac1 0ebc 190d c83d 3431 2fbb 0079 993b
00000280: c635 df39 0fed 81bd faf7 4abe a0b6 823d
00000290: aa9a 013e 9cb6 233d 8393 47be 8a46 113d
000002a0: b738 873e 5523 463e bb9f 283e e9b6 86be
000002b0: 0d27 89be c227 8cbc e9e9 85bd 3a0b a03d
000002c0: 80c5 2abd a86a 0abd 6cfe 49bd 2375 b43c
000002d0: f419 2dbe 6749 cdbd a95b ad3d bd60 a7bd
000002e0: 4006 47bd 747a 163e eb49 953d 97f0 303d
000002f0: 3b4b bebd f6db e8bd af0e 06be 3332 0b3d
00000300: 0348 84be 754f 83be 8303 abbe 296c 02bd
00000310: 0e63 b7be f57f a73d ac40 643e e839 fe3c
00000320: 5b51 093d 2b1f 833d 7d57 c7bc 24f4 013e
00000330: 5c10 093e d522 9ebc 5850 403e 133a e2bd
00000340: 8dca 2d3d 4536 8b3c 20ce 1d3e 3377 62bd
00000350: 8883 00be 63d5 49be 7157 3d3d 0412 9bbd
00000360: 0f9a 673c 83bd 9bbc 3516 61be 8338 ed3d
00000370: f65d fcbb 4e3b d0bc 994c b2bd 327b 5abd
00000380: 1dd2 b63c 210d 92bd ebde 863e 63ed 5c3e
00000390: dfcb e53e 71ec 303f 08ab 4d3e 7d33 f13d
000003a0: b145 5b3d 09d2 973e 4548 fbbd 21a6 ccbd
000003b0: 223d d6bb e131 473d 3846 77bc bcc0 bcbc
000003c0: a617 f93c 81f0 f7bc 8a69 1bbe 4a0a 14be
000003d0: a2e0 f53d 6ab0 f0bd ff66 be3d 1e48 fa3d
000003e0: a4fe 423d 5678 a53d a87b 063d 51ee c0bd
000003f0: 481a 49bb 70b9 f03c 0bf0 bfbc eb33 663f
0.06338806 -0.20139126 -0.16062906 -0.13854721 0.15541276 -0.15783626 -0.23566979 -0.05105552
0.046173025 0.17249697 0.27684754 0.2598157 0.02042143 0.25439978 -0.04954126 0.18786581
0.23397651 -0.046341155 -0.14177816 0.06266546 -0.1978536 -0.08538113 -0.07312916 -0.028265713
-0.0016408053 -0.15586719 -0.119146645 0.029276503 0.11455669 -0.193555 0.05348932 -0.29325855
-0.14948687 -0.075696215 -0.15283957 -0.067925416 0.10830067 -0.030170422 -0.13383517 -0.09643931
-0.07555556 -0.16391274 0.24371248 0.21519016 0.19048367 -0.15276743 0.07170647 0.03287998
0.022220252 -0.21192266 0.14456512 0.26841268 0.14517735 0.23280688 0.2447978 0.21127184
-0.021281227 0.58221704 0.39742145 0.26557472 -0.124070674 0.17580844 0.054892574 -0.14986856
0.14294839 -0.023288228 0.17133123 0.04064901 0.13246852 0.025287945 0.064475745 -0.16453151
-0.061630968 -0.077373415 -0.0520092 0.25119504 0.064469226 0.1913487 0.060353033 0.023924211
-0.010450348 0.0023391729 0.033306587 -0.013301301 0.036282133 -0.10326602 0.003895014 -0.033684447
0.08192104 -0.03039773 -0.014985964 -0.12917872 0.086110674 0.06805993 0.047925893 0.0075186486
-0.049332544 -0.03805683 0.045860995 0.01440475 0.09338672 -0.06909844 -0.10485567 0.06821997
-0.012727259 0.091861695 -0.045072053 -0.0025258 0.025662886 0.067631625 0.021968793 -0.09145012
-0.24395396 -0.20474195 -0.19347157 -0.11890124 -0.21534453 -0.18130152 -0.10174624 0.19161516
0.092796355 0.100167625 0.10926437 0.034133792 0.10969376 0.22829677 0.14715947 -0.15900649
0.10444287 0.26688024 0.08839972 0.010152838 0.10704249 0.28755322 0.17496863 0.074988216
0.053001493 -0.116076045 -0.0758039 -0.022949168 0.08005825 0.042630617 -0.07814908 0.0575805
-0.09379938 0.06219813 0.061323788 0.094440915 -0.09710691 -0.07396491 -0.06280983 0.08810049
-0.009342094 0.011379727 -0.11335757 0.04824151 -0.008713061 0.09768123 -0.0026732208 0.004683614
0.0004257394 -0.063440435 -0.19821158 0.06382489 0.12656656 0.03996907 -0.19489865 0.035467662
0.26410457 0.19349416 0.16467182 -0.26311424 -0.26787606 -0.017108802 -0.065387554 0.07814641
-0.041692257 -0.03379312 -0.0493149 0.022028511 -0.16904432 -0.10023766 0.084647484 -0.08172748
-0.048589945 0.1469515 0.07289489 0.043198194 -0.09291693 -0.11370079 -0.13091539 0.03398342
-0.2583619 -0.25646558 -0.33401117 -0.03184143 -0.3581776 0.08178703 0.22290295 0.031033471
0.033524852 0.06402429 -0.02433371 0.12690789 0.13385147 -0.019303719 0.18780649 -0.11046233
0.042429496 0.016993651 0.15410662 -0.05528946 -0.12550175 -0.19710307 0.04622597 -0.075717956
0.0141358515 -0.019011265 -0.21981128 0.115830444 -0.0077016307 -0.025418904 -0.08706016 -0.053340144
0.022316987 -0.071314104 0.26341948 0.21574931 0.44882104 0.6911078 0.20084774 0.11777399
0.05353326 0.29652432 -0.12269644 -0.09992624 -0.0065380493 0.048631553 -0.015092425 -0.023041122
0.030406784 -0.030266048 -0.15176979 -0.1445705 0.12005736 -0.11752398 0.09296989 0.122207865
0.047606125 0.08079593 0.03283277 -0.09420455 -0.003068583 0.029385298 -0.023429891 0.8992297

mask_net.conv1.1.bias f4 [64]
00000000: 7e40 adbc 31bf 2e3e 95a9 353e b7b6 03be
00000010: 1f0e 22be 3874 713e 022c 13be c8ea 0a3e
00000020: d99d 9fbd 8a1d af3c 2c36 333e 1efa e8bb
00000030: 1d1d 53bd c417 95bd 52f1 133e 8c3d dcbd
00000040: f4f9 06bd de11 19be 1d7c 47be 4ebd e43d
00000050: 891c 08be b55e 0ebe f232 4cbc 9ad2 debc
00000060: 4035 893d 28bb 58be 4de3 52bb 1217 253e
00000070: ba1e 05be ac59 d63d c59d fdbc 13f2 d03d
00000080: 4018 343e de2a 87bd 0f45 07be c929 10be
00000090: 6cdc 25be 24bf ff3d 4146 2abe 6238 14be
000000a0: f910 a93d 2d8e b33d 5815 043e 88c7 b33d
000000b0: 6c34 4bbd e313 12be af93 f53d c0ec 36be
000000c0: 8ab2 003e f9ae 6c3d c221 8f3d 8b30 0ebe
000000d0: d32e 17be 0ac1 173e c0d7 1b3e 476e e5bc
000000e0: 74b2 a1bc 6401 cc3d 0697 f43d 6cb6 52be
000000f0: 90ee 183e aedf d83d 8df9 28be 65bc 013e
-0.021148916 0.17065121 0.17740472 -0.12862669 -0.158257 0.2357949 -0.14372256 0.13566124
-0.07793779 0.02137639 0.17501134 -0.0071098944 -0.051541436 -0.072799236 0.14447525 -0.10753927
-0.032953218 -0.14948222 -0.19480939 0.111689195 -0.13292135 -0.13903315 -0.012463318 -0.027200032
0.0669961 -0.21165144 -0.003217894 0.16122082 -0.13000003 0.10466322 -0.03095902 0.10202422
0.17587376 -0.06599973 -0.13209938 -0.1407844 -0.16197366 0.12487629 -0.16628362 -0.14474633
0.082551904 0.08767352 0.12898767 0.08778292 -0.04961054 -0.14265399 0.11991059 -0.1786375
0.12568107 0.057784054 0.06988861 -0.13885705 -0.14763956 0.14819732 0.15219021 -0.028006686
-0.019738413 0.09961203 0.11942868 -0.20577401 0.14934754 0.105895385 -0.16501446 0.12669523
