final_weight/UIEBD_300.pth (torch, 910037 bytes, 20 tensors)

image_net.conv1.1.weight f4 [64, 3, 3, 3]
-0.07374343 0.014147154 -0.086385064 0.078870706 -0.16587684 0.14410788 -0.13123734 -0.1509753
-0.1215084 0.08750705 -0.06996592 0.07439516 -0.16215147 -0.11668553 -0.07012483 -0.03673637
-0.14661448 0.12528463 -0.04481836 0.06348083 0.13894913 0.037927493 0.05281321 0.18644848
-0.08535451 0.06127373 -0.08597501 0.13049182 0.15245153 -0.17723161 0.1620419 0.09682366
0.08730353 0.07818985 0.16173087 -0.023976237 -0.16094217 -0.05179545 -0.13229622 0.01667097
-0.028988 -0.09853231 -0.013047063 0.18762904 -0.011020541 0.0059741717 -0.028687172 0.032247715
0.17332374 0.121516354 0.070860036 0.043799765 0.047292653 0.075799145 -0.029104387 -0.18341734
-0.12330733 0.15955964 0.007968742 -0.16036318 0.025824992 0.15549502 -0.18751112 -0.12847567
-0.07517808 0.009911952 -0.045696717 -0.020477992 -0.18694498 0.08859313 0.16826783 0.11615475
-0.1379289 -0.1573309 0.077939704 0.0010483465 0.07643945 -0.19046368 -0.014404146 0.1329983
0.08604564 0.009929951 0.04390729 -0.011229036 -0.101046056 -0.069348 -0.11219696 0.16051869
0.1081086 0.069764934 -0.14566976 0.15601645 0.06632203 0.14159764 -0.0714721 0.043447006
0.18893164 0.13225028 0.15474376 -0.04190516 0.14745823 -0.148737 0.018110368 -0.108887576
-0.04554866 -0.051164225 0.012329914 0.17162095 0.09392232 -0.005904596 0.13531289 -0.09821782
0.10153978 -0.015918398 -0.036142223 0.02290015 -0.14788313 0.01775974 0.05083896 0.16549926
-0.052562583 0.08064449 0.20205054 -0.07906133 0.18623745 -0.09423989 0.081958026 0.06848238
0.053549185 0.15350297 -0.072985865 0.05546904 0.0019988087 -0.14152136 -0.045381427 -0.1305285
0.08387509 0.015643323 0.016773026 -0.061039533 -0.002399449 -0.063014 0.052124668 0.18293166
0.023956075 -0.089184105 -0.121118926 0.01005268 -0.14776723 -0.1498478 -0.13111882 -0.07076305
0.008393986 0.12798272 0.071065664 0.14361987 -0.124585144 0.012009674 -0.17591943 0.104780994
0.034820862 0.18059589 -0.14153928 0.14946218 0.15569963 0.15131049 0.025357129 0.16967215
0.12394744 0.14027657 -0.015618259 -0.15233794 -0.007387746 0.029728524 -0.13625282 -0.11451647
-0.1903629 -0.072564386 0.16334769 0.028313005 -0.016418027 0.002828924 0.11392455 -0.17432313
-0.15202157 -0.07012015 -0.115444005 0.09488788 0.13104092 -0.19353804 -0.16890998 -0.18119568
0.07199555 0.15890107 -0.14316498 -0.08540785 0.06912598 -0.117951535 0.16710846 0.049218222
-0.04777829 0.01816559 0.06638047 -0.06162985 -0.14334092 0.0076397387 0.009968302 0.0062242514
-0.025346994 0.12715392 -0.05031269 -0.014608204 0.08339819 -0.117799595 0.055351578 -0.03842646
0.095818676 -0.10341264 0.0075847125 0.016154539 -0.15792796 -0.14105076 0.07065856 -0.05799648
0.11437679 -0.18196656 -0.08822091 -0.15408184 0.06970843 -0.014199724 -0.03483718 -0.041558087
-0.15755455 0.056506604 0.011537979 -0.1292252 0.07431207 -0.0053304746 -0.18865211 0.10430509
0.0973651 -0.040386975 -0.13308893 0.013024602 0.14971362 0.17959034 -0.14615896 -0.08666585
0.1519051 0.095085286 0.12214698 -0.096166044 0.16195613 -0.1615098 -0.0137099 -0.0041453964
00000000: cc06 97bd 77c9 673c a7ea b0bd f786 a13d
00000010: 9edb 29be 0491 133e 1563 06be 4599 1abe
00000020: 65d9 f8bd e536 b33d 4b4a 8fbd 7d5c 983d
00000030: 090b 26be d3f8 eebd 9b9d 8fbd e078 16bd
00000040: 1b22 16be 9d4a 003e 7593 37bd 3d02 823d
00000050: ae48 0e3e dc59 1b3d aa52 583d 5aec 3e3e
00000060: 58ce aebd 2afa 7a3d ab13 b0bd a69f 053e
00000070: 411c 1c3e 347c 35be 50ee 253e 7c4b c63d
00000080: 31cc b23d 0022 a03d c79c 253e d069 c4bc
00000090: 06ce 24be 7727 54bd a978 07be 8f91 883c
000000a0: 3e78 edbc 4fcb c9bd 59c3 55bc d421 403e
000000b0: 808f 34bc fcc2 c33b 5c01 ebbc 2e16 043d
000000c0: c77b 313e 91dd f83d 111f 913d 6267 333d
000000d0: f1b5 413d 953c 9b3d 536c eebc c1d1 3bbe
000000e0: 8e88 fcbd 9a63 233e 548f 023c 3f36 24be
000000f0: ef8e d33c 163a 1f3e ea02 40be 208f 03be
00000100: f7f6 99bd bd65 223c 7b2c 3bbd 76c1 a7bc
00000110: 816e 3fbe 5170 b53d 674e 2c3e 8be2 ed3d
00000120: 3c3d 0dbe 5a1b 21be da9e 9f3d ac68 893a
00000130: 498c 9c3d e908 43be 5eff 6bbc b530 083e
00000140: b238 b03d 3cb1 223c 21d8 333d fef9 37bc
00000150: 3cf1 cebd 5306 8ebd 85c7 e5bd 035f 243e
00000160: 0b68 dd3d ebe0 8e3d 742a 15be c7c2 1f3e
00000170: d8d3 873d f9fe 103e f75f 92bd 7df5 313d
00000180: 4c77 413e 9e6c 073e 2675 1e3e bfa4 2bbd
00000190: 4aff 163e 834e 18be 325c 943c 7300 dfbd
000001a0: 3b91 3abd 9491 51bd 6803 4a3c 67bd 2f3e
000001b0: 585a c03d 577b c1bb 768f 0a3e 6d26 c9bd
000001c0: 17f4 cf3d 4d67 82bc de09 14bd 1899 bb3c
000001d0: ad6e 17be e07c 913c 833c 503d a378 293e
000001e0: dd4b 57bd f028 a53d 56e6 4e3e e8ea a1bd
000001f0: 08b5 3e3e d800 c1bd 9cd9 a73d 7d40 8c3d
00000200: 6456 5b3d e22f 1d3e 9d79 95bd 8133 633d
00000210: 72fe 023b faea 10be e0e1 39bd 43a9 05be
00000220: b4c6 ab3d 6d26 803c 9667 893c 9704 7abd
00000230: 1340 1dbb 7c0d 81bd ad80 553d 7052 3b3e
00000240: 883f c43c 28a6 b6bd 330d f8bd ffb3 243c
00000250: 4b50 17be b471 19be 0344 06be 38ec 90bd
00000260: ee86 093c e70d 033e e08a 913d 1611 133e
00000270: 7f26 ffbd 39c4 443c 3924 34be 6b97 d63d
00000280: 52a0 0e3d 21ee 383e acef 10be 9d0c 193e
00000290: b96f 1f3e 23f1 1a3e c1b9 cf3c 89be 2d3e
000002a0: 28d8 fd3d a9a4 0f3e bae3 7fbc 7afe 1bbe
000002b0: e814 f2bb 3c89 f33c dc85 0bbe 9c87 eabd
000002c0: 7eee 42be a39c 94bd 9e44 273e adf0 e73c
000002d0: 197f 86bc 7865 393b 4651 e93d c381 32be
000002e0: 8bab 1bbe 279b 8fbd e86d ecbd 9454 c23d
000002f0: 972f 063e d62e 46be bdf6 2cbe 5c8b 39be
00000300: 6772 933d f6b6 223e d799 12be 50ea aebd
00000310: ec91 8d3d 9390 f1bd 7b1e 2b3e 0c99 493d
00000320: 2bb3 43bd 01d0 943c 7cf2 873d 956f 7cbd
00000330: f6c7 12be c656 fa3b 1752 233c cef4 cb3b
00000340: 80a4 cfbc a334 023e ae14 4ebd 4057 6fbc
00000350: accc aa3d ea40 f1bd 56b8 623d 1065 1dbd
00000360: 953c c43d 02ca d3bd 2e89 f83b 8656 843c
00000370: deb7 21be 9c6f 10be 6fb5 903d b88d 6dbd
00000380: 613e ea3d 7155 3abe 2aad b4bd a1c7 1dbe
00000390: 4bc3 8e3d f6a5 68bc 6eb1 0ebd d038 2abd
000003a0: fb55 21be 7873 673d cb09 3d3c 9c53 04be
000003b0: ed30 983d 43ab aebb 052e 41be e89d d53d
000003c0: 5b67 c73d d06c 25bd 7748 08be 2465 553c
000003d0: 874e 193e 88e6 373e b2aa 15be dd7d b1bd
000003e0: 038d 1b3e 13bc c23d 3228 fa3d b4f2 c4bd
000003f0: d4d7 253e d362 25be 7d9f 60bc 1bd6 87bb

image_net.conv1.1.bias f4 [64]
0.01179963 -0.10837593 -0.112417124 -0.0013475214 0.043322217 -0.11829374 -0.1740774 0.07927822
0.05871289 -0.10646148 -0.10581889 0.14981696 -0.12606946 0.13559987 -0.1216697 0.07399821
-0.010727728 0.07281528 0.08557271 -0.08383262 -0.17029448 -0.0017676355 0.032660708 -0.021510737
0.070253976 0.19019385 -0.07781676 0.06358531 0.061382838 0.10937655 -0.0815215 -0.1861453
-0.11141667 0.013033115 -0.19006756 0.1614134 0.15686855 0.04536809 -0.13920824 -0.18237926
0.114649996 -0.12812102 0.06510482 0.18162069 -0.11091117 0.07371496 -0.0100679975 0.07361516
0.090588555 -0.0037825594 0.034282062 -0.040958002 0.05211363 0.04574404 0.12136134 0.16902147
0.052192245 0.1498006 -0.18725514 -0.085454345 -0.17193057 -0.077833734 0.14676425 -0.1693788
00000000: 3c53 413c 33f4 ddbd f33a e6bd 519f b0ba
00000010: a372 313d fd43 f2bd 5941 32be 9f5c a23d
00000020: ed7c 703d 7a08 dabd 93b7 d8bd 9e69 193e
00000030: 5a18 01be b1da 0a3e f72d f9bd 608c 973d
00000040: 5ac3 2fbc 2d20 953d bf40 af3d 70b0 abbd
00000050: ad61 2ebe 01b0 e7ba 3cc7 053d 4937 b0bc
00000060: 51e1 8f3d 2dc2 423e 655e 9fbd 0439 823d
00000070: 926c 7b3d d000 e03d bff4 a6bd e09c 3ebe
00000080: 6c2e e4bd d988 553c 12a1 42be 8e49 253e
00000090: 26a2 203e e4d3 393d 9b8c 0ebe a1c1 3abe
000000a0: 9ecd ea3d 2832 03be ad55 853d c6fa 393e
000000b0: 6525 e3bd def7 963d 3ef4 24bc 8cc3 963d
000000c0: 7e86 b93d d1e4 77bb 596b 0c3d 94c3 27bd
000000d0: 1a75 553d 1a5e 3b3d 4b8c f83d f713 2d3e
000000e0: 89c7 553d 5465 193e d0bf 3fbe b002 afbd
000000f0: 910e 30be 4b67 9fbd 5e49 163e a371 2dbe

image_net.conv2.1.weight f4 [64, 64, 3, 3]
0.02183753 -0.015441755 0.00092837564 -0.027776588 -0.022556279 0.0030432837 0.0048430776 -0.033393558
5.7445748e-05 -0.014295223 -0.02713938 -0.03576478 0.015222625 0.00714657 0.02461007 0.035387136
0.017411578 -0.012353641 0.025546493 0.010681333 0.035133556 0.023755265 0.00836546 0.023156973
-0.039656278 0.024175845 0.029452574 -0.004775522 -0.034370676 0.025907885 0.007069113 -0.008203472
-0.0042838436 0.03238345 -0.014100326 0.041311476 0.031974863 0.014900008 0.021097917 -0.027422473
-0.036393743 0.028328972 0.028306875 -0.030529503 -0.025352482 0.01835861 0.020241275 0.033274755
-0.021607118 0.026847862 0.008085592 -0.02558455 0.044332657 -0.0038037335 -0.015912618 -0.036748655
-0.014172167 -0.017736482 -0.0020516212 -0.02728015 -0.03701761 -0.038310725 -0.02207019 -0.014820374
0.0045431918 0.013746428 0.025160154 -0.028070172 0.028163796 0.026267286 -0.034489878 -0.027017718
-0.022720072 0.0013439524 -0.035625134 0.007130003 0.020047849 0.032032933 0.027995137 -0.017816009
-0.024826724 0.02728602 -0.003980766 -0.024009982 0.025375376 0.021075306 0.025388036 -0.019407934
-0.006199529 0.023911826 -0.03812458 -0.042429507 -0.031359773 0.021544242 -0.043498527 0.01624228
-0.025932577 -0.014262724 -0.01049805 0.022703515 0.033896424 0.02551905 -0.028218182 -0.0027062418
0.022750737 0.026981192 -0.016447471 0.020684013 -0.00883647 -0.03247315 0.019974282 -0.004294568
0.025905486 0.02855437 0.020126142 0.011279767 -0.008792036 -0.0056232256 -0.027411263 -0.03056413
0.04499793 -0.0057069496 0.020409452 -0.005966508 0.028073078 -0.008251343 -0.022306854 0.029438278
-0.01852703 0.01360848 -0.0098314695 0.043645218 0.010462644 -0.008963112 0.017150115 0.032614663
-0.026966602 0.021956008 0.042474415 -0.015513824 -0.012249686 -0.004394565 0.009256097 -0.017128443
-0.0384296 0.022412408 0.014396876 -0.019609913 0.020925881 0.02960344 0.008053368 0.006285388
0.019684102 -0.035081666 -0.025004063 0.012207231 -0.01998159 0.04135198 -0.011343666 -0.030403396
-0.01911827 -0.0016333057 -0.018407214 0.012350523 -0.00014807272 -0.027762877 0.0052090734 0.032129064
-0.0006426587 -0.04062985 0.017681165 -0.044592664 -0.014819365 0.011181476 -0.040878125 0.007997592
0.018860787 0.033092286 0.011960453 -0.004861178 0.014681352 -0.018574676 -0.008443129 -0.025044803
-0.010072846 -0.0388932 -0.02333885 -0.0005441002 0.010626023 -0.025050854 0.037351523 0.02906923
0.033774134 -0.0012741284 -0.007591324 -0.02556684 -0.010476797 -0.0051690326 0.018111477 -0.016744021
0.027936853 0.024591014 0.026638618 0.012855709 -0.0346315 0.03884141 0.0007859324 0.04203413
0.032989256 0.0062598973 0.02420694 -0.025007678 0.0423651 -0.030465184 0.025152203 -0.015235997
0.036138635 0.0022042117 -0.020725977 0.01870096 0.008096884 0.025680745 -0.022065546 -0.018741777
0.00087108224 -0.0064613973 0.031340145 0.018582491 -0.004430446 0.026226606 0.04528282 -0.015442943
0.03279642 -0.020182641 -0.024503378 -0.03615737 0.008674673 0.0377219 -0.036930606 -0.029465422
0.029507067 -0.016314441 0.025522133 -0.0040530707 0.030961953 0.008301811 0.03377749 -0.015968908
-0.011226351 -0.013628178 0.035744883 0.008550658 -0.030250724 0.022447478 0.0248682 -0.026919082
00000000: 9fe4 b23c 6aff 7cbc 3c5e 733a ba8b e3bc
00000010: f2c7 b8bc d471 473b aeb2 9e3b afc7 08bd
00000020: e7f1 7038 8336 6abc 6853 debc 177e 12bd
00000030: 5168 793c c62d ea3b 0f9b c93c 1af2 103d
00000040: baa2 8e3c ed66 4abc e146 d13c c200 2f3c
00000050: 34e8 0f3d 679a c23c 480f 093c b1b3 bd3c
00000060: 9f6e 22bd 6c0c c63c 8646 f13c fb7b 9cbb
00000070: 44c8 0cbd c63c d43c 05a4 e73b db67 06bc
00000080: 7c5f 8cbb 82a4 043d 0e05 67bc 3936 293d
00000090: 13f8 023d 2a1f 743c 8ad5 ac3c 18a5 e0bc
000000a0: 9b11 15bd 2912 e83c d2e3 e73c 0219 fabc
000000b0: 02b0 cfbc cc64 963c 08d1 a53c 1c4b 083d
000000c0: 6901 b1bc 0cf0 db3c 6e79 043c b196 d1bc
000000d0: 2996 353d 0f48 79bb 2e5b 82bc c285 16bd
000000e0: 6032 68bc 194c 91bc 7e74 06bb 9f7a dfbc
000000f0: c79f 17bd b5eb 1cbd 8bcc b4bc 27d1 72bc
00000100: 0edf 943b b338 613c ab1c ce3c 6bf3 e5bc
00000110: c3b7 e63c 7e2e d73c 4245 0dbd 4354 ddbc
00000120: 721f babc 8f27 b03a a9eb 11bd cda2 e93b
00000130: 633b a43c f734 033d 0f56 e53c e1f2 91bc
00000140: 6a61 cbbc ee86 df3c 1671 82bb 95b0 c4bc
00000150: 05e0 cf3c 1fa6 ac3c 92fa cf3c 63fd 9ebc
00000160: 6b25 cbbb bce2 c33c 8528 1cbd 90ca 2dbd
00000170: 1b73 00bd 8d7d b03c 832b 32bd 880e 853c
00000180: 8e70 d4bc 33ae 69bc 0300 2cbc b9fc b93c
00000190: fad6 0a3d 540d d13c d129 e7bc 345b 31bb
000001a0: c15f ba3c a907 dd3c d9bc 86bc 8571 a93c
000001b0: d7c6 10bc 9102 05bd 1ba1 a33c 73b9 8cbb
000001c0: be37 d43c dbea e93c 94df a43c c6ce 383c
000001d0: 790c 10bc 0943 b8bb 968d e0bc a061 fabc
000001e0: c04f 383d 5d01 bbbb b931 a73c b282 c3bb
000001f0: 83f9 e53c a430 07bc ddbc b6bc 8b28 f13c
00000200: ffc5 97bc 1af6 5e3c 2c14 21bc 54c5 323d
00000210: 826b 2b3c 04da 12bc 667e 8c3c f496 053d
00000220: 10e9 dcbc 16dd b33c a7f9 2d3d b22d 7ebc
00000230: e8b2 48bc 4800 90bb e2a6 173c f350 8cbc
00000240: 5b68 1dbd 3a9a b73c e0e0 6b3c f8a4 a0bc
00000250: c16c ab3c ea82 f23c 46f2 033c a8f5 cd3b
00000260: 8e40 a13c cbb1 0fbd 52d5 ccbc d600 483c
00000270: 6eb0 a3bc b260 293d c9da 39bc 8b10 f9bc
00000280: eb9d 9cbc a514 d6ba baca 96bc d959 4a3c
00000290: f843 1bb9 f96e e3bc e0b0 aa3b c499 033d
000002a0: 1878 28ba 7c6b 26bd 17d8 903c cca6 36bd
000002b0: eccc 72bc 8232 373c d26f 27bd 5508 033c
000002c0: f081 9a3c c78b 073d c7f5 433c 844a 9fbb
000002d0: 0e8a 703c eb29 98bc 0d55 0abc c22a cdbc
000002e0: 9408 25bc 7a4e 1fbd 1e31 bfbc f2a1 0eba
000002f0: c518 2e3c 7337 cdbc e9fd 183d 9822 ee3c
00000300: bf56 0a3d a800 a7ba a4c0 f8bb 8d71 d1bc
00000310: dfa6 2bbc fd60 a9bb 855e 943c c22a 89bc
00000320: d4db e43c 1873 c93c 3b39 da3c c0a0 523c
00000330: c2d9 0dbd 2c18 1f3d 0807 4e3a fb2b 2c3d
00000340: be1f 073d d31f cd3b a24d c63c e7dc ccbc
00000350: 0787 2d3d 1f92 f9bc fe0b ce3c 67a0 79bc
00000360: 1b06 143d 8974 103b 86c9 a9bc c132 993c
00000370: cba8 043c 6d60 d23c cec2 b4bc 5b88 99bc
00000380: 5759 643a 21ba d3bb 865e 003d 4f3a 983c
00000390: 462d 91bb 2ed9 d63c 7a7a 393d 6604 7dbc
000003a0: 8a55 063d 1156 a5bc 4fbb c8bc c019 14bd
000003b0: 3720 0e3c 4782 1a3d 8c44 17bd 7861 f1bc
000003c0: ceb8 f13c dda5 85bc cb13 d13c 9fcf 84bb
000003d0: eca3 fd3c 5204 083c 445a 0a3d 3ad1 82bc
000003e0: bbee 37bc b948 5fbc 3a69 123d 0f18 0c3c
000003f0: 5ed0 f7bc c6e3 b73c 65b8 cb3c 6885 dcbc

image_net.conv2.1.bias f4 [64]
0.028591126 0.014971005 0.00068549777 0.039140712 0.028079692 0.007184372 0.02937184 0.00039810519
-0.01644775 0.0041140984 0.032006048 0.015672367 0.02038542 -0.026931068 -0.022748059 -0.020252416
-0.006202096 0.025167722 0.041105572 -0.0029502378 -0.032572318 0.031936165 0.0004212483 -0.022106947
0.012207214 -0.0030477694 -0.022955507 0.02477702 -0.011102801 0.019460903 0.0060893497 -0.004113855
-0.019523848 0.03788571 0.034351338 0.03995955 0.021759925 -0.021863496 -0.009386891 0.005732284
-0.022915246 -0.023181874 0.033469554 -0.024293397 0.030639743 -0.016463077 -0.0027807995 0.022750113
0.020437654 -0.020863429 0.0029560255 -0.011303118 0.0065265778 0.025550054 0.021641772 -0.011648764
-0.03585779 0.035762575 0.031155057 0.015457727 0.018597938 -0.0155327795 -0.0028280383 -0.015402717
00000000: f037 ea3c f248 753c fab2 333a 0352 203d
00000010: 6207 e63c e16a eb3b 379d f03c c6b8 d039
00000020: 6fbd 86bc 8fcf 863b c618 033d 5663 803c
00000030: 53ff a63c 8b9e dcbc 235a babc 65e8 a5bc
00000040: f43a cbbb 8a2c ce3c 515e 283d c758 41bb
00000050: 8d6a 05bd 7fcf 023d fdda dc39 a119 b5bc
00000060: c400 483c 16bd 47bb 300d bcbc 2df9 ca3c
00000070: 86e8 35bc 796c 9f3c 2b89 c73b 84cd 86bb
00000080: 7af0 9fbc 0c2e 1b3d fdb3 0c3d a0ac 233d
00000090: df41 b23c 131b b3bc 79cb 19bc e2d5 bb3b
000000a0: c1b8 bbbc eae7 bdbc 5f17 093d f202 c7bc
000000b0: 3300 fb3c 93dd 86bc 133e 36bb 725e ba3c
000000c0: de6c a73c c8e9 aabc e1b9 413b b730 39bc
000000d0: e7dc d53b 594e d13c 164a b13c 75da 3ebc
000000e0: 9edf 12bd c77b 123d e438 ff3c 6842 7d3c
000000f0: b45a 983c 337d 7ebc 9c56 39bb ad5b 7cbc

image_net.conv3.1.weight f4 [64, 64, 3, 3]
0.027103148 0.004089821 0.016858771 -0.015890524 0.021824218 0.011276044 0.034291927 0.0029885145
-0.033514727 0.0056133345 0.011200125 0.02397001 -0.021953126 0.028842378 0.0021556295 0.0038052218
0.028046886 0.018135147 -0.03904323 0.024837349 0.015376661 -0.0028817237 -0.005281694 -0.03387146
-0.04225755 -0.03287366 -0.0109466715 -0.0014049733 0.038494505 -0.008198372 -0.0021140876 0.04166928
-0.037909087 0.0062068272 -0.01409664 0.023064934 -0.024639549 -0.00979437 0.037778255 0.028650792
-0.019676674 -0.0041959058 -0.020813197 -0.011117987 -0.040501356 -0.015350619 0.024628794 -0.019400593
-0.030772554 -0.013314468 -0.015997838 -0.034865618 -0.0103630405 0.004120281 0.020593401 0.03347103
-0.026241992 0.02707622 -0.024963442 0.03212332 -0.0060310042 0.0030261846 -0.009782883 0.022570746
-0.043117058 0.03572788 0.027106658 -0.021160157 -0.021726608 0.015501169 -0.027176749 -0.024993148
0.025679305 -0.009653032 -0.007782172 0.04190268 -0.030320818 -0.03382432 -0.010296817 -0.029616062
-0.03257232 0.00034335357 -0.034938246 0.0068542077 -0.040004324 0.0056016683 0.010240055 0.004108156
-0.007192682 0.0044308268 0.022916118 -0.01951283 -0.028366292 0.005565226 0.029199023 0.017687017
-0.0024262245 -0.036120072 0.008006139 -0.015904924 0.022595188 0.032957766 -0.0011403711 -0.04012244
0.0176083 0.031865265 0.013121515 -0.032477975 -0.03510228 -0.027874088 -0.02506803 0.023863057
0.008969985 0.017295616 -0.007485847 0.00014572316 0.010106204 -0.03787448 -0.009045605 -1.2411019e-05
0.014924482 0.032338455 -0.007054551 -0.039704405 -0.011428042 -0.0015437524 -0.00825991 -0.030444538
-0.037069347 -0.027833462 0.037136074 0.0043857857 -0.003436155 0.0342017 -0.024032565 -0.021192733
0.0044550044 -0.016356548 0.034271516 -0.04125619 -0.02880846 -0.016635261 0.013039065 0.0145013295
0.033052504 -0.02990661 0.01145446 -0.0006186611 -0.0030705233 0.031892043 0.039770123 0.0007648398
0.0013234254 -0.0128381625 0.015382225 -0.005624009 -0.0015794105 -0.017969 0.043314695 -0.026524214
0.0064173024 0.018298026 -0.016886719 0.010055779 0.0009881877 -0.020485919 0.007022718 0.0135716675
0.0010367214 0.03666639 0.031394143 -0.0017565346 0.04208004 -0.042293016 -0.023473796 0.018363765
0.0043944875 0.0056543467 -0.04209231 -0.036335114 0.027174614 -0.028343415 0.03512713 0.024995722
0.0009149687 0.029611591 -0.009925004 -0.029532783 -0.026638208 -0.013275189 0.028967144 -0.007815425
-0.02207465 0.025826493 0.02502112 0.042599816 -0.02084883 0.021670518 -0.009638739 -0.0030422732
-0.012514441 0.00787781 -0.019004172 -0.0017246016 0.0017309284 0.029362082 0.017785974 0.0013386075
0.023262365 0.034500826 0.030510066 0.025053699 -0.031072605 0.012074806 0.015112104 -0.024625372
-0.038048673 -0.017050156 0.013190935 0.025639594 0.003203054 -0.0024571675 -0.014601469 -0.03905999
-0.00017275532 -0.033726905 0.007871337 0.028247498 0.028520102 -0.022531973 0.03628208 0.03563879
0.012934987 0.025877897 0.0065711993 -0.019828552 -0.012530328 -0.02029191 -0.0050775283 0.03272919
-0.0074545266 -0.006503724 0.010093479 0.024193363 -0.038136777 -0.0031757948 -0.032898884 -0.017434398
-0.013744428 -0.038153525 0.012318342 0.03275203 -0.012808409 -0.03007861 0.014008254 -0.025237883
00000000: 6c07 de3c e803 863b 681b 8a3c d82c 82bc
00000010: b4c8 b23c 28bf 383c b175 0c3d f4da 433b
00000020: bd46 09bd 10f0 b73b bb80 373c c15c c43c
00000030: 0bd7 b3bc da46 ec3c 7645 0d3b 0761 793b
00000040: 95c2 e53c 2990 943c cbeb 1fbd b277 cb3c
00000050: 64ee 7b3c 4ddb 3cbb 0f12 adbb cdbc 0abd
00000060: 4116 2dbd 88a6 06bd ab59 33bc 1527 b8ba
00000070: 6aac 1d3d 7752 06bc 818c 0abb 68ad 2a3d
00000080: 8f46 1bbd a462 cb3b 98f5 66bc acf2 bc3c
00000090: e1d8 c9bc 9178 20bc 5fbd 1a3d 11b5 ea3c
000000a0: fa30 a1bc cf7d 89bb 7080 aabc 3828 36bc
000000b0: c0e4 25bd 2a81 7bbc 53c2 c93c feed 9ebc
000000c0: b916 fcbc ed24 5abc e60d 83bc 40cf 0ebd
000000d0: bec9 29bc 6c03 873b 7eb3 a83c eb18 093d
000000e0: 72f9 d6bc f3ce dd3c 2280 ccbc be93 033d
000000f0: bb9f c5bb f452 463b 6348 20bc 49e6 b83c
00000100: 839b 30bd 6657 123d c80e de3c 1158 adbc
00000110: 00fc b1bc 9df8 7d3c c6a1 debc 6ebe ccbc
00000120: 685d d23c c027 1ebc 9701 ffbb 25a2 2b3d
00000130: 5d63 f8bc 5f8b 0abd fbb3 28bc 629d f2bc
00000140: 8e6a 05bd 2304 b439 681b 0fbd 4399 e03b
00000150: 93db 23bd 338e b73b e7c5 273c b69d 863b
00000160: 97b0 ebbb 7830 913b 95ba bb3c 5fd9 9fbc
00000170: 6d60 e8bc 805c b63b ca32 ef3c 5de4 903c
00000180: 4b01 1fbb a4f2 13bd 2e2c 033c 0b4b 82bc
00000190: 8b19 b93c b9fe 063d 8178 95ba 6d57 24bd
000001a0: 483f 903c 2785 023d 9ffb 563c a007 05bd
000001b0: 69c7 0fbd 3358 e4bc 785b cdbc 757c c33c
000001c0: d8f6 123c 89af 8d3c d64b f5bb 43cd 1839
000001d0: 7e94 253c 4522 1bbd 0434 14bc ec38 50b7
000001e0: d185 743c 5475 043d dd29 e7bb 16a1 22bd
000001f0: af3c 3bbc bc57 caba 9354 07bc d366 f9bc
00000200: 07d6 17bd 0003 e4bc ff1b 183d a3b6 8f3b
00000210: 1d31 61bb 1517 0c3d f1df c4bc 629c adbc
00000220: 49fb 913b 2bfe 85bc 4a60 0c3d 40fc 28bd
00000230: b8ff ebbc ac46 88bc cda1 553c fc96 6d3c
00000240: 1062 073d b5fe f4bc 7dab 3b3c a52d 22ba
00000250: d53a 49bb 3ba1 023d ffe5 223d 887f 483a
00000260: ca76 ad3a 2857 52bc ba05 7c3c 9b49 b8bb
00000270: 3904 cfba b933 93bc c06a 313d 4f49 d9bc
00000280: 3c48 d23b bee5 953c 0456 8abc fec0 243c
00000290: 1486 813a 16d2 a7bc d41e e63b b35b 5e3c
000002a0: 99e2 873a 7f2f 163d 2597 003d 853b e6ba
000002b0: 1f5c 2c3d 713b 2dbd 1e4c c0bc 9b6f 963c
000002c0: a2ff 8f3b 1948 b93b fc68 2cbd 21d4 14bd
000002d0: 4c9d de3c 7330 e8bc 77e1 0f3d d4c3 cc3c
000002e0: 83da 6f3a 0294 f23c 7c9c 22bc bcee f1bc
000002f0: 5f38 dabc 2e80 59bc 814c ed3c 450c 00bc
00000300: e5d5 b4bc 1592 d33c 18f9 cc3c 257d 2e3d
00000310: 2acb aabc 5f86 b13c cdeb 1dbc e060 47bb
00000320: 5f09 4dbc ee11 013c a3ae 9bbc 070c e2ba
00000330: 52e0 e23a c088 f03c e4b3 913c 3774 af3a
00000340: b790 be3c bd50 0d3d 3ff0 f93c 6a3d cd3c
00000350: fa8b febc 68d5 453c c298 773c 26bb c9bc
00000360: edd8 1bbd c5ac 8bbc cb1e 583c 200a d23c
00000370: 54ea 513b 6e08 21bb 003b 6fbc 5efd 1fbd
00000380: a725 35b9 3925 0abd c8f6 003c 4c67 e73c
00000390: fda2 e93c f994 b8bc 859c 143d fbf9 113d
000003a0: 45ed 533c e2fd d33c 3753 d73b 7d6f a2bc
000003b0: 014c 4dbc 383b a6bc 6561 a6bb 0b0f 063d
000003c0: 1a45 f4bb 311d d5bb 1f5f 253c 2931 c63c
000003d0: 4f35 1cbd ff20 50bb fbc0 06bd 95d2 8ebc
000003e0: 4f30 61bc df46 1cbd dfd2 493c fe26 063d
000003f0: 5cda 51bc 6b67 f6bc e082 653c adbf cebc

image_net.conv3.1.bias f4 [64]
-0.017164215 0.036569655 -0.0006647214 -0.020114798 -0.010777012 0.0026055241 0.035354614 -0.011435723
-0.031884987 0.017018452 -0.006544047 -0.026270011 0.0069900244 -0.005365093 0.040812366 -0.0064328047
-0.002978149 0.017543072 -0.0016760364 -0.012832324 -0.012722785 -0.036535792 0.009713848 0.02863135
-0.040648002 0.026476284 0.005769404 0.032285403 0.028159572 0.011628082 0.001985766 0.0034126476
0.006699908 0.016136393 0.02831153 0.038210098 0.039641444 -0.012506471 -0.0041290056 0.039658695
0.036781434 -0.0118817575 0.019953946 0.015490418 -0.031230204 0.0054377024 -0.017844176 0.0043936623
-0.006166579 -0.0054026186 0.03611756 -0.031346705 -0.020412743 0.015728593 -0.018002154 0.015361798
-0.0053396816 -0.027156483 -0.03149834 -0.03341425 0.01519974 0.011595354 0.012608612 0.0027543239
00000000: f89b 8cbc 10ca 153d b340 2eba cac7 a4bc
00000010: 1192 30bc 71c1 2a3b 00d0 103d e65c 3bbc
00000020: d599 02bd 486a 8b3c 726f d6bb 3534 d7bc
00000030: 930c e53b a9cd afbb de2a 273d 47ca d2bb
00000040: 0d2d 43bb 7db6 8f3c 73ae dbba ab3e 52bc
00000050: 3a73 50bc 8ea6 15bd d526 1f3c 4b8c ea3c
00000060: 857e 26bd cbe4 d83c 450d bd3b b33d 043d
00000070: e7ae e63c b683 3e3c a023 023b baa6 5f3b
00000080: e78a db3b 7830 843c 95ed e73c 3182 1c3d
00000090: 115f 223d f1e7 4cbc 9c4c 87bb 2871 223d
000000a0: 21a8 163d b4ab 42bc 7576 a33c 86cb 7d3c
000000b0: 7cd6 ffbc c12e b23b f32d 92bc b6f8 8f3b
000000c0: 0411 cabb 7308 b1bb 02f0 133d 6765 00bd
000000d0: a038 a7bc 40d9 803c 4179 93bc 0db0 7b3c
000000e0: 7ff8 aebb 4677 debc 6704 01bd 61dd 08bd
000000f0: 5508 793c 71fa 3d3c 5a94 4e3c e381 343b

image_net.conv4.1.weight f4 [64, 64, 3, 3]
0.02989558 0.009121993 -0.033849612 0.014295344 0.035800446 0.035482783 0.014648707 -0.029813202
-0.0064923423 -0.03100675 -0.03251722 0.03777608 -0.029213548 -0.005549303 -0.028611202 -0.04493783
-0.038498115 0.03409121 0.017147653 0.0136672435 0.0033739244 -0.03967141 -0.020138854 -0.03559874
-0.024460137 -0.036835194 0.024356956 -0.018264214 -0.028958766 0.010541194 0.033056196 -0.020069396
-0.035609014 0.025903977 0.014022486 0.038247094 0.025246926 0.0068482896 0.0120507255 0.024022728
-0.0013285873 0.025181903 -0.043227423 -0.03119733 0.019682039 0.03324039 0.007825033 -0.014918259
-0.027239928 -0.0043282993 0.0059786737 -0.00047259958 0.012997398 0.03729338 -0.03527157 -0.0069344044
0.025448771 0.0032560762 -0.036678363 -0.034754265 -0.0016939329 -0.018337771 -0.015325212 0.029001573
0.0134188365 0.017757056 -0.028930645 0.03174537 0.039833955 0.040395632 -0.0027332497 0.017330665
-0.018873082 -0.031006815 -0.0192608 0.02324012 -0.025147263 -0.0060372422 0.02806123 -0.035989817
0.0028028756 -0.03390042 0.014593728 0.027504232 -0.020166218 -0.031328097 0.008084327 0.010773158
0.037681475 -0.028253624 0.022557203 -0.026529504 -0.016487919 -0.02348957 0.008856229 0.0028074475
-0.039835244 0.0346331 0.02811794 0.026469652 -0.008274238 -0.02540274 -0.028638434 0.021286277
0.034552068 0.0037655244 0.010590314 0.029179065 -0.010143391 -0.02160725 -0.015608367 0.024511976
-0.005985698 -0.040443085 -0.005421528 -0.040129818 0.00880386 0.013089925 -0.01267026 -0.024222385
-0.028749006 0.0062363646 -0.008133628 -0.01907968 -0.030823179 0.03202705 0.036916375 0.0050041345
-0.03760202 -0.015636962 0.0067204027 -0.033389065 0.00904332 -0.010755799 -0.017131612 -0.037309572
-0.040842723 0.014010274 -0.042958554 0.01392677 -0.023361659 0.009691746 0.001493804 -0.04006354
-0.025408383 0.010378119 0.033086468 0.030485855 0.036404993 -0.019165521 0.0031433993 0.0028625387
-0.039819703 -0.018047215 -0.014589578 -0.012444716 0.010161782 -0.0062988354 0.024068667 0.005626524
-0.0342569 -0.0180758 -0.0026664017 -0.018834641 0.004204501 0.0320433 -0.019841025 -0.017530855
-0.014546266 -0.02510499 0.006146043 -0.042754624 -0.03342783 0.005706596 0.0029850283 -0.0069019594
-0.0028047513 0.010638751 0.025483375 -0.009864151 -0.034115322 -0.0446682 0.02482184 0.0011662451
-0.013656162 0.0313486 0.007505541 -0.027598573 -0.042610783 -0.0034459124 -0.0017433099 -0.031122847
0.0013774459 0.02096305 0.036101263 0.0119105475 0.012035557 -0.018875217 0.039960273 0.021966292
-0.004514678 -0.009906468 -0.01270638 0.022950094 0.03577406 -0.011703791 -0.014652488 -0.005056891
-0.005525398 -0.020993276 -0.025060209 0.004260242 0.027706482 -0.035811275 0.013434341 -0.044466473
0.009322268 -0.044998873 0.01647413 0.015914662 0.0023033763 -0.02079191 0.0064917686 -0.011595402
0.01709101 0.019868108 0.0029432036 0.027785754 -0.044285566 0.006965356 0.006451136 -0.0024491923
-0.01962194 0.0077388585 -0.008985002 -0.009957603 0.026215097 -0.015081147 0.037955735 -0.015705133
0.016807042 -0.015933482 0.020873634 0.034328323 -0.010606044 -0.030194234 -0.0405098 -0.020552099
-0.005844623 0.03185988 -0.028976956 0.015067138 -0.04301358 -0.035767008 -0.003852785 0.017976763
00000000: 93e7 f43c 6974 153c e4a5 0abd 0537 6a3c
00000010: 7da3 123d 6556 113d 2101 703c d13a f4bc
00000020: b7bd d4bb de01 febc c730 05bd 17bb 1a3d
00000030: 4051 efbc edd6 b5bb 0a62 eabc bb10 38bd
00000040: 33b0 1dbd 3aa3 0b3d 3c79 8c3c 93ec 5f3c
00000050: 0f1d 5d3b 7d7e 22bd 3dfa a4bc fccf 11bd
00000060: a060 c8bc 80e0 16bd 3d88 c73c d59e 95bc
00000070: ef3a edbc f9b4 2c3c ef65 073d 9368 a4bc
00000080: c2da 11bd 9434 d43c 92be 653c fca8 1c3d
00000090: a4d2 ce3c 9e67 e03b 6870 453c 50cb c43c
000000a0: fe23 aeba 474a ce3c 3d0f 31bd 8b91 ffbc
000000b0: 3a3c a13c 1327 083d 9134 003c b76b 74bc
000000c0: 4526 dfbc 68d4 8dbb c0e8 c33b 3ec7 f7b9
000000d0: 0af3 543c f1c0 183d ec78 10bd 003a e3bb
000000e0: f179 d03c e563 553b 0d3c 16bd 7d5a 0ebd
000000f0: f506 deba 1839 96bc 9916 7bbc b594 ed3c
00000100: aeda 5b3c 3f77 913c f6ff ecbc 6f07 023d
00000110: ee28 233d e475 253d 5220 33bb 0af9 8d3c
00000120: b99b 9abc 0102 febc d3c8 9dbc 1062 be3c
00000130: a201 cebc 0fd4 c5bb aae0 e53c 0f6a 13bd
00000140: 73b0 373b 2bdb 0abd 881a 6f3c 8e50 e13c
00000150: a033 a5bc e451 00bd 2074 043c e681 303c
00000160: e457 1a3d 2574 e7bc e2c9 b83c 6754 d9bc
00000170: ac11 87bc 336d c0bc b719 113c 27fd 373b
00000180: 482a 23bd 70db 0d3d 9857 e63c e2d6 d83c
00000190: ab90 07bc 6819 d0bc 269b eabc 8f60 ae3c
000001a0: 7886 0d3d 04c7 763b ff82 2d3c ef08 ef3c
000001b0: 7730 26bc b001 b1bc 3cba 7fbc 57cd c83c
000001c0: ad23 c4bb a6a7 25bd 13a7 b1bb 2a5f 24bd
000001d0: 113e 103c 2077 563c ec96 4fbc 066e c6bc
000001e0: 0983 ebbc 6b5a cc3b e942 05bc fd4c 9cbc
000001f0: e480 fcbc cc2e 033d a035 173d b9f9 a33b
00000200: 9304 1abd 1619 80bc d336 dc3b f9c2 08bd
00000210: 6f2a 143c 1739 30bc 9857 8cbc ecd1 18bd
00000220: b34a 27bd 598b 653c 4ff5 2fbd 1b2d 643c
00000230: f360 bfbc 21ca 1e3c bfcb c33a ab19 24bd
00000240: 3e25 d0bc fc08 2a3c ad85 073d 79bd f93c
00000250: 671d 153d 0301 9dbc 7d01 4e3b 6e99 3b3b
00000260: fc19 23bd c1d7 93bc 2009 6fbc ece4 4bbc
00000270: 9a7d 263c 7666 cebb a72b c53c b45e b83b
00000280: f750 0cbd b313 94bc ccbe 2ebb 1b4b 9abc
00000290: e9c5 893b d63f 033d a589 a2bc de9c 8fbc
000002a0: 7653 6ebc fba8 cdbc bf64 c93b 791f 2fbd
000002b0: 9feb 08bd 66fe ba3b 77a0 433b d529 e2bb
000002c0: ebcf 37bb 284e 2e3c 83c2 d03c 3f9d 21bc
000002d0: 82bc 0bbd 01f6 36bd 2c57 cb3c b1dc 983a
000002e0: 18be 5fbc 6467 003d 0bf1 f53b 6716 e2bc
000002f0: a588 2ebd d1d4 61bb c67f e4ba 57f5 febc
00000300: 6a8b b43a b4ba ab3c ebde 133d 7524 433c
00000310: c930 453c 33a0 9abc 62ad 233d a7f2 b33c
00000320: ddef 93bb bd4e 22bc 6c2e 50bc d601 bc3c
00000330: d287 123d 42c1 3fbc fd10 70bc 47b4 a5bb
00000340: 660e b5bb 17fa abbc 114b cdbc 8099 8b3b
00000350: b4f8 e23c d8ae 12bd b61b 5c3c 7a22 36bd
00000360: 6dbc 183c bd50 38bd c1f4 863c 775f 823c
00000370: 3ef4 163b cc53 aabc e7b8 d43b a4fa 3dbc
00000380: 7202 8c3c 71c2 a23c c3e2 403b f39e e33c
00000390: c864 35bd a43d e43b 0d64 d33b a182 20bb
000003a0: 31be a0bc 4096 fd3b d435 13bc 3725 23bc
000003b0: 0bc1 d63c ea16 77bc 7977 1b3d 0da8 80bc
000003c0: ecae 893c ef86 82bc 2fff aa3c db9b 0c3d
000003d0: f9c4 2dbc e659 f7bc 9bed 25bd e05c a8bc
000003e0: 4084 bfbb 817f 023d 1561 edbc 28dc 763c
000003f0: 022f 30bd 6d80 12bd 027f 7cbb 0144 933c

image_net.conv4.1.bias f4 [64]
-0.026352186 0.030969677 -0.03178595 0.017248804 -0.029947763 0.0050012018 0.03996745 -0.01819172
0.034366813 0.0021405632 -0.01659784 -0.018409163 0.022144267 -0.010771601 -0.0116494205 0.022185545
-0.014675144 0.014182751 -0.02199182 0.028371984 0.03793461 0.009958491 0.006688299 -0.024992624
-0.02748609 -0.011203552 0.010444924 -0.022987176 0.029665768 -0.02543397 -0.010499342 -0.029247554
-0.0305204 0.025156386 0.023910085 0.0239265 -0.024762074 -0.0003859438 0.0042126714 -0.02819062
-0.020410206 0.0012140814 -0.004154702 -0.033533067 -0.010081283 -0.029789153 0.041098345 0.01651378
-0.023612402 -0.013576295 -0.036936786 -0.032879595 0.029003397 0.015840907 -0.036962774 0.033886522
-0.03210949 0.00961588 -0.036042355 0.0020507912 -0.03776102 -0.017586147 -0.004513972 -0.038927972
00000000: 8ae0 d7bc 1fb4 fd3c fc31 02bd 5d4d 8d3c
00000010: 0355 f5bc 1fe1 a33b e9b4 233d cd06 95bc
00000020: 37c4 0c3d b148 0c3b 31f8 87bc d0ce 96bc
00000030: e567 b53c 5f7b 30bc 36dd 3ebc 76be b53c
00000040: 0470 70bc c55e 683c 3028 b4bc 5d6c e83c
00000050: 5261 1b3d f028 233c 8529 db3b 55bd ccbc
00000060: 822a e1bc 1a8f 37bc 3021 2b3c 9a4f bcbc
00000070: a005 f33c e75a d0bc 6f05 2cbc 9198 efbc
00000080: eb05 fabc c414 ce3c 15df c33c 8201 c43c
00000090: d5d9 cabc 8058 cab9 730a 8a3b 04f0 e6bc
000000a0: 4e33 a7bc d021 9f3a 2b24 88bb f859 09bd
000000b0: f72b 25bc 6208 f4bc bd56 283d e847 873c
000000c0: cc6e c1bc 1c6f 5ebc 074b 17bd c1ac 06bd
000000d0: 8898 ed3c cac4 813c 4766 17bd 98cc 0a3d
000000e0: 3e85 03bd ed8b 1d3c 26a1 13bd 9166 063b
000000f0: 4dab 1abd d310 90bc f1e9 93bb f072 1fbd

image_net.final.0.weight f4 [3, 64, 1, 1]
-0.031179857 -0.025289325 -0.034702025 -0.0819825 -0.12163023 -0.13060276 -0.033110697 0.033140168
0.04790878 0.032555677 -0.075577505 0.088353455 0.100417554 0.09361199 0.09864265 -0.10569933
0.030163812 0.054208357 0.09104652 -0.1263526 0.079084516 -0.09668997 -0.123728044 -0.14030604
-0.06143606 -0.029457184 0.04205183 0.09802449 -0.107212834 -0.0042698868 0.0094478885 0.028727332
0.0142335165 -0.08110449 -0.06053533 0.031187274 -0.054921184 -0.04353346 -0.10591703 0.08100736
0.016956856 -0.05227358 -0.08903559 -0.03695301 -0.08572466 0.07221691 -0.021386135 0.011468555
0.08521121 0.09393405 0.013930973 -0.13657922 -0.084407926 -0.14322442 -0.07353618 0.10712237
0.008769076 -0.12124852 -0.0877725 0.009972816 -0.07596378 0.085179366 0.09594219 -0.085851744
-0.081637114 -0.058223482 0.016693864 0.022770034 -0.061804682 0.06687966 -0.105318226 -0.03622873
0.10434095 -0.063649714 0.05255473 -0.007273835 -0.058401365 0.01543765 -0.023450298 -0.032528277
-0.06477933 -0.02561744 0.0025521084 -0.050776508 0.12779333 0.010752152 0.029532513 -0.015213118
-0.09834691 -0.09566643 -0.11404502 -0.11142175 -0.059809312 0.08203088 -0.07326702 -0.056281526
-0.073878795 -0.07746269 -0.00858578 0.04674352 0.04161184 -0.08183089 0.07502559 -0.00013847614
-0.048274934 -0.037839763 0.11600214 0.009598686 -0.008393255 0.044464044 0.017155675 -0.05109118
-0.014458892 0.021960309 0.10883535 -0.034650847 0.010946307 -0.021247638 -0.033490296 0.06269381
-0.081409976 0.11365876 -0.04060767 -0.007822705 -0.008747588 0.030855786 -0.06686852 -0.108156666
0.058896724 -0.10716111 -0.0771885 -0.1190634 0.09226881 -0.07915434 0.0680077 0.11933135
-0.04555236 0.051997315 0.095582 -0.018891249 -0.040376574 -0.094146594 0.003668989 0.011792295
-0.11601312 0.08475595 -0.07027993 0.09311682 0.053439748 -0.04313324 -0.019031439 0.030876234
-0.108861506 -0.08652044 -0.114392795 -0.07529136 -0.07104912 -0.12099425 -0.10118262 -0.074286394
0.028965062 -0.030947942 -0.068950094 0.09269913 0.0736911 -0.124985814 -0.05157227 -0.002634105
-0.09145919 0.07577321 0.004298919 -0.024472155 -0.016457694 0.06477838 0.09551357 0.081779025
0.039934378 0.10921665 0.030215442 -0.008818456 0.09485267 -0.07902928 -0.022944117 0.04273253
-0.049216237 -0.08955039 0.10545241 -0.047044568 0.074891545 0.08615731 0.019340253 0.042964373
00000000: e66c ffbc 8f2b cfbc b623 0ebd 71e6 a7bd
00000010: 4519 f9bd bbbc 05be 159f 07bd fcbd 073d
00000020: ff3b 443d 1a59 053d 61c8 9abd a8f2 b43d
00000030: b8a7 cd3d a5b7 bf3d 2805 ca3d e478 d8bd
00000040: 191a f73c 9509 5e3d 9976 ba3d 9362 01be
00000050: 10f7 a13d 6405 c6bd 2165 fdbd 63ac 0fbe
00000060: 61a4 7bbd 3150 f1bc 8a3e 2c3d 10c1 c83d
00000070: 6792 dbbd 68ea 8bbb 51cb 1a3c 9555 eb3c
00000080: b233 693c 1c1a a6bd e5f3 77bd 747c ff3c
00000090: 09f5 60bd 2450 32bd 07eb d8bd 30e7 a53d
000000a0: 1be9 8a3c d21c 56bd 4b58 b6bd 0a5c 17bd
000000b0: 6990 afbd 76e6 933d fa31 afbc 9be6 3b3c
000000c0: 3783 ae3d 7f60 c03d bc3e 643c 6cdb 0bbe
000000d0: 10de acbd 6ca9 12be 239a 96bd f962 db3d
000000e0: 2cac 0f3c 2551 f8bd 12c2 b3bd 0665 233c
000000f0: e692 9bbd 8572 ae3d 577d c43d 0ad3 afbd
00000100: 5c31 a7bd bf7b 6ebd 92c1 883c 3988 ba3c
00000110: e826 7dbd 34f8 883d 15b1 d7bd 9464 14bd
00000120: b5b0 d53d c85a 82bd a143 573d 5a59 eebb
00000130: 4536 6fbd 32ee 7c3c d71a c0bc 5f3c 05bd
00000140: 06ab 84bd aadb d1bc 4641 273b 07fb 4fbd
00000150: 41dc 023e cb29 303c 2bee f13c 7140 79bc
00000160: 1b6a c9bd c3ec c3bd 6f90 e9bd 1631 e4bd
00000170: 9cfa 74bd ceff a73d 050d 96bd 7587 66bd
00000180: c44d 97bd c2a4 9ebd 5fab 0cbc 2276 3f3d
00000190: 2d71 2a3d f496 a7bd 04a7 993d e833 11b9
000001a0: f0bb 45bd defd 1abd 8892 ed3d cf43 1d3c
000001b0: dd83 09bc ee1f 363d 0f8a 8c3c fc44 51bd
000001c0: fde4 6cbc 1be6 b33c 11e5 de3d 0cee 0dbd
000001d0: 2458 333c 870f aebc 1f2d 09bd 9d65 803d
000001e0: 46ba a6bd edc5 e83d 3a54 26bd ce2a 00bc
000001f0: 0b52 0fbc 46c5 fc3c 5df2 88bd 3e81 ddbd
00000200: b13d 713d 4977 dbbd 0115 9ebd 83d7 f3bd
00000210: 6ef7 bc3d ac1b a2bd 9f47 8b3d ff63 f43d
00000220: 1d95 3abd 23fb 543d 7fc0 c33d d2c1 9abc
00000230: e861 25bd eecf c0bd 6c73 703b 7834 413c
00000240: 4998 edbd 8794 ad3d edee 8fbd 08b4 be3d
00000250: a3e3 5a3d 7bac 30bd d2e7 9bbc 28f0 fc3c
00000260: c8f2 debd a131 b1bd c546 eabd 5b32 9abd
00000270: 3382 91bd d5cb f7bd d538 cfbd 7723 98bd
00000280: 2348 ed3c 8a86 fdbc b535 8dbd 0bd9 bd3d
00000290: 5ceb 963d 90f8 ffbd 723d 53bd f3a0 2cbb
000002a0: f54e bbbd fc2e 9b3d f2dd 8c3b d479 c8bc
000002b0: 49d2 86bc 87aa 843d 9e9c c33d c37b a73d
000002c0: 3b92 233d fbac df3d 6086 f73c 497b 10bc
000002d0: 1e42 c23d 1ada a1bd 4df5 bbbc 4e08 2f3d
000002e0: f796 49bd 3266 b7bd 6ff7 d73d ceb1 40bd
000002f0: bd60 993d 3e73 b03d 736f 9e3c 69fb 2f3d

image_net.final.0.bias f4 [3]
-0.08945496 0.07335795 -0.07877907
00000000: 2934 b7bd b13c 963d ec56 a1bd

mask_net.conv1.1.weight f4 [64, 3, 3, 3]
0.1903857 -0.13075063 -0.12833005 -0.00075562706 0.18954313 -0.11381763 -0.14688903 0.0111536775
0.07855983 0.15166381 0.1943392 0.16629842 0.013494627 0.14189284 -0.13632292 0.16725376
0.17610025 -0.124497235 -0.035872232 0.12063575 -0.16471422 0.021997966 -0.065465406 -0.0045742537
0.07329334 -0.1083287 -0.10154649 0.055553984 0.1458509 -0.15229248 0.08676705 -0.17036936
-0.06521541 -0.0892987 -0.12362605 -0.032765273 0.12705472 -0.027045643 -0.12787515 -0.10463648
-0.036245633 -0.15920274 0.19201419 0.1791763 0.15736327 -0.15883742 0.061848603 0.0433176
-0.013299323 -0.17661434 0.15528983 0.16981071 0.07943025 0.18555245 0.16620645 0.113975525
0.17504886 0.16505753 -0.13351913 0.12574342 -0.013647364 0.11275152 0.034438375 -0.11058958
0.18800472 0.102885954 0.19032761 0.014066918 0.19705616 0.17345451 0.15946096 -0.10304951
-0.14555989 -0.13938853 -0.01625046 0.14188667 -0.06467586 0.18060258 0.071382076 0.0063280594
-0.03282806 0.004436346 0.039689273 0.008381818 0.08384333 -0.10180428 -0.114306115 -0.016557626
0.050979253 0.06662212 -0.16243084 -0.18224446 0.16466996 0.011525227 0.06979869 0.07060077
-0.1370345 -0.09699844 0.15282416 0.043823414 0.15805273 -0.03122524 -0.052429028 0.12587519
-0.06622617 0.09378329 -0.09831995 0.0038167043 0.019392459 0.0748966 0.027603574 -0.03479308
-0.18093103 -0.17161095 -0.089152016 -0.0119174905 -0.12766287 -0.040373303 -0.08979595 0.094075836
0.1759864 0.054688748 -0.07539913 0.067705475 0.06496034 0.09050568 0.08973164 -0.18704624
0.15533993 0.1770041 0.029212072 -0.019789029 -0.06467264 0.1804519 0.13980256 0.040725507
-0.098148145 -0.16784635 0.09323918 -0.09646717 0.116498396 0.011056611 -0.0455418 -0.06957023
-0.13546266 0.018672762 0.14489809 0.16892429 -0.1520821 -0.051511053 -0.13054234 0.06266957
-0.13028271 -0.050415255 -0.18077186 0.10860486 0.09914763 0.09540134 0.07745652 -0.05600654
0.02124681 -0.13188215 -0.14971508 0.14304261 0.15210418 0.0011871081 -0.16911441 0.03235512
0.1809725 0.13314952 0.10308272 -0.12024513 -0.17155868 -0.020517802 -0.029231401 0.13453785
-0.050810903 -0.046588242 -0.06427778 -0.029582646 -0.004903109 -0.028896589 0.030052483 -0.06538981
-0.012064011 0.09703852 0.03573653 -0.0020588348 -0.1885332 -0.10805639 -0.06864455 -0.040105607
-0.1605103 0.13085134 -0.16230994 -0.13407813 -0.1829782 0.16838741 0.15586586 -0.04719903
-0.047991 -0.026848182 -0.0821539 0.05272291 0.011009633 -0.105132505 0.11793943 -0.100972384
0.02477427 -0.04009587 0.17215979 -0.006127622 -0.13489686 -0.17862405 0.10387756 -0.037475295
0.024754228 0.012350258 -0.13823122 0.07782354 -0.038765986 0.04111425 -0.0577246 -0.017319707
0.09308422 0.018053867 0.12241653 0.12819226 0.19332086 0.17238824 -0.045888454 0.1008564
-0.17982483 0.08988731 -0.09829492 -0.06059551 0.09281718 0.026374616 -0.037318088 0.07445078
-0.009753985 -0.0635587 -0.16483344 -0.15487254 0.12544057 -0.12509404 0.027786314 0.070760205
0.036651526 0.14525543 0.06579645 -0.09830889 0.009124077 0.009746329 0.028736698 0.13889769
00000000: 78f4 423e 7ee3 05be f468 03be 4615 46ba
00000010: 9817 423e 3819 e9bd 146a 16be eabd 363c
00000020: fae3 a03d c24d 1b3e db00 473e 224a 2a3e
00000030: 9118 5d3c 5b4c 113e 3c98 0bbe 9244 2b3e
00000040: a053 343e 68f8 febd c3ee 12bd e00f f73d
00000050: d8aa 28be 1435 b43c ba12 86bd 9fe3 95bb
00000060: d21a 963d 70db ddbd 9bf7 cfbd 938c 633d
00000070: f059 153e 8ff2 1bbe ecb2 b13d 4e75 2ebe
00000080: a88f 85bd 3de2 b6bd a82f fdbd e134 06bd
00000090: a21a 023e d38e ddbc b4f1 02be a74b d6bd
000000a0: 4d76 14bd 0b06 23be 5e9f 443e fe79 373e
000000b0: d623 213e 47a6 22be f654 7d3d cc6d 313d
000000c0: 67e5 59bc 64da 34be 4c04 1f3e dce2 2d3e
000000d0: 54ac a23d 7601 3e3e 0632 2a3e 006c e93d
000000e0: 0240 333e d704 293e 3db9 08be e2c2 003e
000000f0: 3299 5fbc 45ea e63d 410f 0d3d ca7c e2bd
00000100: 4f84 403e dfb5 d23d 3ee5 423e ee78 663c
00000110: 17c9 493e 0f9e 313e bc49 233e 9f0b d3bd
00000120: a70d 15be debb 0ebe af1f 85bc bd4a 113e
00000130: c774 84bd e2ef 383e c430 923d 9c5b cf3b
00000140: b776 06bd c45e 913b 3891 223d e553 093c
00000150: 0db6 ab3d c37e d0bd 5319 eabd dca3 87bc
00000160: 9fcf 503d 2e71 883d 4554 26be 4b9e 3abe
00000170: 3e9f 283e 4ed4 3c3c 9ef2 8e3d 2397 903d
00000180: c652 0cbe 1ea7 c6bd f07d 1c3e 2e80 333d
00000190: 93d8 213e 13cc ffbc d2bf 56bd 6de5 003e
000001a0: 96a1 87bd 7411 c03d f85b c9bd ac21 7a3b
000001b0: efdc 9e3c 6363 993d e420 e23c 3083 0ebd
000001c0: fc45 39be c8ba 2fbe 5595 b6bd 9441 43bc
000001d0: 0eba 02be 7a5e 25bd f0e6 b7bd d5aa c03d
000001e0: c735 343e 4f01 603d dc6a 9abd 2ba9 8a3d
000001f0: ed09 853d 0b5b b93d 39c5 b73d 0d89 3fbe
00000200: 6e11 1f3e 9040 353e 284e ef3c 9a1c a2bc
00000210: 1773 84bd 62c8 383e 6728 0f3e cacf 263d
00000220: e501 c9bd eadf 2bbe 2ff4 be3d 9490 c5bd
00000230: b696 ee3d ca26 353c 0a8a 3abd d67a 8ebd
00000240: b9b6 0abe 9ff7 983c 2a60 143e 7dfa 2c3e
00000250: 69bb 1bbe 41fd 52bd e4ac 05be e758 803d
00000260: d568 05be 3a80 4ebd 421c 39be 3a6c de3d
00000270: ea0d cb3d c761 c33d 86a1 9e3d 1d67 65bd
00000280: ca0d ae3c 1d0c 07be e94e 19be c379 123e
00000290: 33c1 1b3e bd98 9b3a 542c 2dbe cd86 043d
000002a0: db50 393e 5958 083e 081d d33d 1443 f6bd
000002b0: 14ad 2fbe f314 a8bc b176 efbc 4ac4 093e
000002c0: 181f 50bd 50d3 3ebd 12a4 83bd 4e57 f2bc
000002d0: 42aa a0bb 8ab8 ecbc a030 f63c 18eb 85bd
000002e0: 21a8 45bc 22bc c63d 7860 123d 84ed 06bb
000002f0: d90e 41be ab4c ddbd 8495 8cbd c745 24bd
00000300: d05c 24be e5fd 053e 9434 26be c74b 09be
00000310: a35e 3bbe c06d 2c3e 4d9b 1f3e c553 41bd
00000320: 3692 44bd b8f0 dbbc 4e40 a8bd faf3 573d
00000330: bf61 343c b64f d7bd 3a8a f13d 9cca cebd
00000340: 69f3 ca3c 913b 24bd a84a 303e 38ca c8bb
00000350: 6722 0abe 39e9 36be c2bd d43d b27f 19bd
00000360: 61c9 ca3c bd58 4a3c 7c8c 0dbe f361 9f3d
00000370: 15c9 1ebd 6a67 283d a170 6cbd 0fe2 8dbc
00000380: f1a2 be3d b4e5 933c 85b5 fa3d d544 033e
00000390: e7f5 453e 8b86 303e 88f5 3bbd cd8d ce3d
000003a0: 0024 38be d716 b83d d94e c9bd ff32 78bd
000003b0: ef16 be3d 940f d83c dada 18bd a779 983d
000003c0: 2ecf 1fbc 102b 82bd 19ca 28be e896 1ebe
000003d0: 7e73 003e a718 00be 20a0 e33c baea 903d
000003e0: e91f 163d d7bd 143e 4ac0 863d 2c56 c9bd
000003f0: 277d 153c 11af 1f3c 3969 eb3c 323b 0e3e

mask_net.conv1.1.bias f4 [64]
-0.022194568 0.1816466 0.17638385 -0.12355181 -0.16388065 0.18501478 -0.13700187 0.13502574
-0.07349221 0.01941103 0.17088333 -0.010447438 -0.046462864 -0.07524731 0.14423917 -0.099713
-0.033973433 -0.14444041 -0.18883525 0.113223456 -0.14178121 -0.14070903 -0.014729445 -0.030075936
0.065988965 -0.18361029 -0.0048425584 0.1653932 -0.13443345 0.1067163 -0.04062505 0.113918245
0.17646556 -0.070859976 -0.1277993 -0.14755033 -0.1713946 0.11930631 -0.16633739 -0.14247651
0.08657426 0.08733304 0.1424601 0.08327626 -0.05013315 -0.15246743 0.120852314 -0.18451624
0.12710063 0.055081725 0.06925307 -0.13192748 -0.14908507 0.14298111 0.0872991 -0.027354566
-0.017534385 0.08391895 0.12515804 -0.16913973 0.12652776 0.11076277 -0.1702356 0.13795415
00000000: 62d1 b5bc 9101 3a3e f89d 343e bb08 fdbd
00000010: 54d0 27be 8474 3d3e 384a 0cbe 3044 0a3e
00000020: 1583 96bd e103 9f3c 0afc 2e3e bb2b 2bbc
00000030: d84f 3ebd 431b 9abd 6fb3 133e 5436 ccbd
00000040: ba27 0bbd 30e8 13be 075e 41be b3e1 e73d
00000050: 182f 11be 0716 10be c553 71bc cf61 f6bc
00000060: 3925 873d 5604 3cbe 53ae 9ebb d65c 293e
00000070: eca8 09be 138e da3d 7466 26bd f84d e93d
00000080: 63b3 343e 091f 91bd d2dd 02be 6f17 17be
00000090: 1182 2fbe de56 f43d 5954 2abe 5de5 11be
000000a0: d84d b13d aadb b23d 0fe1 113e be8c aa3d
000000b0: 6b58 4dbd 6c20 1cbe 6b81 f73d d3f1 3cbe
000000c0: ab26 023e 609d 613d 8ed4 8d3d ff17 07be
000000d0: c2a9 18be a469 123e dfc9 b23d af16 e0bc
000000e0: 45a4 8fbc b3dd ab3d 6e29 003e f732 2dbe
000000f0: 7e90 013e 97d7 e23d 3e52 2ebe da43 0d3e
